vn_edge_pretrained_para/checkpoints/local_emd_model-ckpt-105.pt (torch, 392630 bytes, 15 tensors)

conv1.vn_linear_1.map_to_feat.weight f4 [32, 3]
0.5836065 0.23406501 0.4542751 0.032550085 -0.3285056 -0.5022212 -0.11557602 0.041494355
-0.2551087 -0.39904806 0.014691392 0.49274263 0.62826437 -0.15190414 -0.25170195 -0.028771754
0.22744605 0.6801086 -0.35307923 0.055641085 0.35878205 0.29811895 -0.32333702 0.38751668
-0.37092394 0.13498333 -0.45618522 -0.63520116 0.008795693 0.39155194 -0.5384751 0.053592924
-0.5045991 -0.27896947 -0.13364886 -0.025610153 0.5393879 -0.46578255 0.21211866 0.5216859
-0.047766868 -0.19340457 0.55623895 -0.13695794 -0.2216393 -0.6316867 -0.08131149 0.79199785
-0.033678066 -0.2838594 0.50194937 -0.5959638 -0.026614692 0.10066199 -0.5743109 0.11812392
0.14269924 0.07884669 0.12655768 -0.6263474 0.5778142 -0.0072166533 0.51514465 0.50240237
-0.051905185 -0.25691545 -0.11007966 -0.13639522 0.50792706 0.7636275 0.12398076 0.33110762
0.2722211 0.003967736 -0.4376728 0.48103732 -0.47363472 0.8186689 -0.0021308307 0.0023220826
0.11589529 0.3984129 -0.44284737 -0.5330261 -0.12290537 -0.57380986 -0.18241514 -0.59406704
-0.33455807 -0.25115797 -0.47667596 -0.0036952544 0.56999075 -0.09670011 0.06813713 0.47017458
00000000: 3c67 153f bdae 6f3e bf96 e83e 3d53 053d
00000010: e331 a8be 9291 00bf 1fb3 ecbd fcf5 293d
00000020: 9c9d 82be 0750 ccbe 2ab4 703c c348 fc3e
00000030: efd5 203f c28c 1bbe 14df 80be beb2 ebbc
00000040: 9ee7 683e 991b 2e3f cdc6 b4be e8e7 633d
00000050: 48b2 b73e 0ca3 983e 6e8c a5be 9668 c63e
00000060: bee9 bdbe 1239 0a3e 1c91 e9be 8b9c 22bf
00000070: cf1b 103c 7f79 c83e 81d9 09bf 4184 5b3d
00000080: 682d 01bf 16d5 8ebe 3fdb 08be 62cc d1bc
00000090: 5315 0a3f 0d7b eebe a235 593e 358d 053f
000000a0: 31a7 43bd d90b 46be ad65 0e3f b43e 0cbe
000000b0: 6af5 62be 38b6 21bf a386 a6bd 5fc0 4a3f
000000c0: 03f2 09bd 0556 91be c17f 003f 1591 18bf
000000d0: 0e07 dabc e027 ce3d 0a06 13bf f4ea f13d
000000e0: c01f 123e 607a a13d 5698 013e 4e58 20bf
000000f0: a2eb 133f ad79 ecbb 85e0 033f 719d 003f
00000100: 889a 54bd 6c8a 83be 7271 e1bd 30ab 0bbe
00000110: 8207 023f 187d 433f a0e9 fd3d f086 a93e
00000120: 9060 8b3e c803 823b a616 e0be 864a f63e
00000130: 4080 f2be 4994 513f 68a5 0bbb 152e 183b
00000140: 835a ed3d c7fc cb3e e4bc e2be 6674 08bf
00000150: d0b5 fbbd 34e5 12bf 09cb 3abe c714 18bf
00000160: 324b abbe c797 80be df0e f4be 152c 72bb
00000170: eaea 113f b50a c6bd 7b8b 8b3d b9ba f03e

conv1.relu_1.map_to_dir.weight f4 [32, 32]
4.205636e-13 -4.780376e-13 2.4178448e-13 5.112469e-14 -3.9761933e-13 3.522997e-13 3.4461558e-13 -4.528785e-13
3.013464e-13 -3.2632032e-14 2.36948e-13 -3.589924e-13 -4.9642175e-13 -2.4039549e-13 -3.4849283e-13 -1.9532202e-13
-4.4868238e-13 -8.5929283e-14 3.6057686e-13 3.5588085e-13 -1.4003423e-14 -3.0902158e-13 -3.4042864e-13 2.6362972e-13
1.5409095e-13 -4.6038564e-13 -3.145061e-13 -4.860586e-13 -5.215884e-13 -4.4940977e-13 1.733911e-13 2.467366e-13
-5.9371732e-18 4.771972e-18 -1.0742691e-17 -4.8450334e-18 4.0121874e-18 1.0539314e-17 6.9062054e-18 4.17476e-18
-7.581361e-18 2.9943413e-18 -3.638334e-18 5.4273414e-19 -1.2177321e-18 1.0539695e-17 6.9254324e-18 9.899018e-19
-1.10337655e-17 8.5475096e-18 7.332405e-18 3.378968e-18 -1.1251016e-17 -7.070635e-18 5.44301e-18 -1.0571114e-17
4.3222946e-18 1.0942645e-18 1.02460985e-17 3.4052226e-18 5.463856e-18 3.1994064e-18 -4.8246633e-18 -5.636668e-18
-0.002201706 0.06889147 -0.06279376 -0.033706613 0.051935606 -0.06584502 -0.05173723 0.14417271
-0.06937489 -0.051704373 -0.051398173 0.010377863 0.15164703 0.03858272 0.052665308 -0.021011012
0.05215636 -0.042083476 -0.05029348 -0.032378692 0.05086087 0.046283327 0.030306958 0.016352126
0.02968595 0.116260685 0.04539319 0.109589495 0.05361981 0.013853813 -0.04714086 -0.06858482
-0.21955669 0.042331595 0.1577351 0.26570055 0.12947056 0.09810159 0.17179038 -0.03900133
-0.09267711 0.17279117 0.35406345 0.032425944 0.01703905 -0.44063744 -0.1576545 -0.00031327302
0.066706225 0.20190148 -0.14397286 -0.20817146 -0.21626806 -0.23145096 -0.022765396 -0.2366579
-0.0008395366 -0.017199604 0.15760726 -0.09598991 -0.12615892 0.044906985 0.23940669 0.11310551
-1.1219415e-18 8.3533546e-18 -5.664276e-18 -9.364487e-18 -5.06523e-18 -4.0218907e-18 3.4494341e-18 8.762832e-18
1.0587421e-17 -4.86695e-18 -2.3200226e-18 -1.5519136e-18 3.6635366e-18 -3.0356757e-18 -3.5439275e-18 1.6670949e-18
-6.7405174e-18 9.5051175e-18 -9.657569e-18 -9.841214e-18 -5.0668943e-19 -7.583652e-18 -4.4200016e-18 6.035077e-18
4.1758472e-20 -1.0763841e-18 -1.0437103e-17 -3.2373463e-18 -3.315957e-18 7.962106e-18 3.9541607e-18 -8.645366e-19
0.18918641 0.08590268 -0.16333994 -0.01150347 0.2188981 -0.041707832 -0.08901329 0.34149894
-0.03075958 -0.09483157 -0.056622956 0.04082372 0.32390758 -0.07297803 -0.014160734 -0.0819817
0.25221413 0.08008536 -0.08658434 -0.2114588 -0.06886429 0.03849652 0.012363205 -0.113954626
-0.21249115 1.0010175 0.1008916 -0.15245277 -0.034497745 -0.06767588 0.20183362 -0.00028523727
-2.137062e-18 9.17643e-18 -6.7817697e-18 -6.3654567e-19 -4.8189454e-18 4.125837e-18 6.4414676e-18 3.1063968e-18
-5.768091e-18 3.2097342e-18 -4.878919e-18 -8.9803335e-18 1.0176962e-17 7.7790315e-18 -3.311052e-18 5.4663656e-18
-1.1172448e-19 3.5843188e-18 -6.116023e-20 8.752783e-18 7.447727e-18 -7.3881704e-19 2.0044175e-19 1.06943435e-17
4.6869964e-18 -1.1030207e-17 -1.6884249e-18 -2.8462958e-18 -2.4006483e-18 -2.341204e-19 -3.0676843e-18 5.593272e-18
-1.12187355e-17 7.87204e-18 1.0903659e-18 7.1830354e-18 2.8914485e-18 7.3740165e-18 -1.1206434e-17 5.3794347e-18
1.935564e-18 6.963068e-18 1.0533093e-17 1.0404813e-17 5.132489e-18 1.00504e-17 1.1137724e-18 7.15367e-18
1.5208561e-18 -1.0296601e-17 -1.940889e-18 -4.519715e-18 2.7449281e-18 -2.7060012e-18 -6.362039e-18 -6.0942445e-18
-5.4964717e-18 9.280632e-18 -1.0103341e-18 4.8659214e-18 -4.9559956e-18 2.4602415e-18 -1.07349e-17 1.2322212e-18
00000000: 9ac1 ec2a 3d8e 06ab d11c 882a c13e 6629
00000010: fcd6 dfaa bd53 c62a 5700 c22a acf2 feaa
00000020: 98a4 a92a 2cf6 12a9 ce63 852a 4218 caaa
00000030: f5ba 0bab a454 87aa 1c2f c4aa bde9 5baa
00000040: f295 fcaa dc7e c1a9 9afc ca2a d657 c82a
00000050: 6443 7ca8 b4f6 adaa f0a4 bfaa 0c69 942a
00000060: b17d 2d2a 4896 01ab 1b0d b1aa 37d0 08ab
00000070: 68d0 12ab c6fe fcaa 9538 432a 7ee6 8a2a
00000080: 040b dba2 000e b022 ed2a 46a3 0cc0 b2a2
00000090: 0a06 9422 816a 4223 44cb fe22 7e05 9a22
000000a0: f7d9 0ba3 82f1 5c22 183b 86a2 d52f 2021
000000b0: 9eb4 b3a1 4d6c 4223 dc80 ff22 6f15 9221
000000c0: 7c89 4ba3 79ac 1d23 4e42 0723 e752 7922
000000d0: 6c8b 4fa3 216e 02a3 c7cf c822 ad00 43a3
000000e0: eb76 9f22 257c a121 d501 3d23 d642 7b22
000000f0: a994 c922 1413 6c22 a8ff b1a2 d3f4 cfa2
00000100: 7f4a 10bb f916 8d3d 049a 80bd f20f 0abd
00000110: 6eba 543d c1d9 86bd 6bea 53bd 03a2 133e
00000120: 6c14 8ebd f7c7 53bd e486 52bd ea07 2a3c
00000130: 5c49 1b3e ea08 1e3d 94b7 573d 491f acbc
00000140: e8a1 553d b95f 2cbd 8900 4ebd 859f 04bd
00000150: 7d53 503d 9693 3d3d 4c46 f83c e5f4 853c
00000160: f32f f33c 151a ee3d 36ee 393d 7570 e03d
00000170: 72a0 5b3d 1afb 623c c616 41bd 3376 8cbd
00000180: 78d3 60be e563 2d3d 4f85 213e e709 883e
00000190: ee93 043e 7de9 c83d d1e9 2f3e dcbf 1fbd
000001a0: 7fcd bdbd 2bf0 303e ce47 b53e 11d1 043d
000001b0: 7a95 8b3c 3b9b e1be 2e70 21be cb3e a4b9
000001c0: 469d 883d 43bf 4e3e 9f6d 13be e62a 55be
000001d0: 6075 5dbe 7b01 6dbe 7f7e babc 7356 72be
000001e0: 5914 5cba 2fe6 8cbc cc63 213e 5c96 c4bd
000001f0: ce2f 01be 63f0 373d 0727 753e dda3 e73d
00000200: c091 a5a1 9a17 1a23 93f9 d0a2 8abe 2ca3
00000210: bfdf baa2 af61 94a2 f885 7e22 4ea5 2123
00000220: af4d 4323 0b8f b3a2 fd2f 2ba2 a305 e5a1
00000230: 2029 8722 4bfe 5fa2 73bf 82a2 1105 f621
00000240: 63ae f8a2 a656 2f23 9526 32a3 d289 35a3
00000250: 5f8c 15a1 c9e4 0ba3 bc11 a3a2 b1a7 de22
00000260: e532 451f a4d8 9ea1 d387 40a3 bedf 6ea2
00000270: a8ac 74a2 fcdf 1223 fee1 9122 8a2a 7fa1
00000280: 15ba 413e bfed af3d 9642 27be 0d79 3cbc
00000290: d326 603e d5d5 2abd 9a4c b6bd f3d8 ae3e
000002a0: 84fb fbbc 0e37 c2bd 79ed 67bd c636 273d
000002b0: 37d7 a53e 8175 95bd 6c02 68bc 06e6 a7bd
000002c0: 3622 813e cb03 a43d 2153 b1bd a888 58be
000002d0: b908 8dbd 87ae 1d3d 0a8f 4a3c 0b61 e9bd
000002e0: 4897 59be 5721 803f 41a0 ce3d 941c 1cbe
000002f0: 824d 0dbd a799 8abd 79ad 4e3e e68b 95b9
00000300: f6af 1da2 7746 2923 0134 faa2 08e0 3ba1
00000310: a7c9 b1a2 6e37 9822 f1a5 ed22 2d36 6522
00000320: 14ce d4a2 2ad6 6c22 1600 b4a2 6da8 25a3
00000330: 58bb 3b23 707f 0f23 0150 74a2 5dac c922
00000340: a7e6 03a0 ef3c 8422 1769 909f d975 2123
00000350: e562 0923 700f 5aa1 cda3 6c20 9c46 4523
00000360: 6eeb ac22 ae78 4ba3 e42a f9a1 0205 52a2
00000370: f722 31a2 4633 8aa0 eb5a 62a2 f65a ce22
00000380: fbf2 4ea3 a836 1123 dce8 a021 ed80 0423
00000390: eb59 5522 cf06 0823 e3b8 4ea3 5377 c622
000003a0: c5d1 0e22 2972 0023 204d 4223 57ef 3f23
000003b0: fd5a bd22 ac65 3923 225d a421 40f6 0323
000003c0: 5270 e021 53f0 3da3 5b36 0fa2 80bf a6a2
000003d0: 3a8a 4a22 ebaa 47a2 c2b7 eaa2 83d6 e0a2
000003e0: b5c8 caa2 8c32 2b23 5819 95a1 5485 b322
000003f0: 0ed8 b6a2 a688 3522 2206 46a3 00d8 b521

conv1.vn_linear_2.map_to_feat.weight f4 [32, 32]
0.11567909 0.038716078 -0.03773318 0.064777985 -0.09611254 -0.014642738 0.041390106 -0.13799766
-0.12804486 0.0260176 0.08563497 0.13962963 0.06375543 0.17888199 -0.1101624 -0.013972051
0.003749602 0.25651777 0.10494491 0.10832264 0.0037553166 -0.098486856 0.06940569 -0.08145724
0.02894358 -0.18874826 -0.037387926 0.20241037 -0.062684685 0.19615762 0.12809803 -0.19981603
0.09538048 -0.054632828 -0.21742293 0.043916076 0.17998181 -0.11248188 0.021826988 0.09747881
0.16719443 -0.12674053 0.22460344 0.114700615 0.058780678 -0.34116122 -0.002065572 -0.145585
-0.09029375 0.011020644 0.010581694 -0.083114125 0.13616574 0.06803237 -0.11155271 0.117943324
0.0797322 0.09071939 0.0057980623 -0.06363353 0.06742589 0.059700415 0.13621154 0.12967356
0.05285604 -0.08484898 -0.08157862 0.11753176 0.06604998 -0.3147025 -0.17210212 0.060929615
0.07194672 -0.12662397 0.16240548 -0.020076841 -0.048765954 -0.19144495 -0.014068541 -0.1024098
0.0823677 0.10892845 0.06235831 -0.04252927 0.13953377 0.04208157 -0.03826954 0.13152257
-0.026774451 -0.15560432 0.05104264 -0.21307042 0.2856084 -0.118800625 0.0013462065 -0.09315686
-0.2006171 -0.053723864 -0.004783196 0.08628199 -0.122548185 -0.3059091 -0.060067084 -0.110143386
0.06726152 0.19448829 0.047275074 0.014307852 -0.18544972 -0.051385388 0.02279631 0.18123257
-0.092705905 0.2993565 0.034302816 -0.005382593 -0.07996524 0.04293637 -0.04602699 0.04434694
-0.0038692637 -0.35204768 0.09763402 0.1671014 0.0035866958 0.121078655 0.004617222 -0.3722891
0.005350136 -0.02813328 0.0053396653 0.17633744 0.07613413 0.1637059 -0.00270076 -0.17287348
0.19228801 -0.011075924 0.08369403 0.07730998 0.10330063 0.000943243 0.059033778 0.047210466
0.14580345 -0.19578964 -0.115973435 -0.009514606 -0.13613239 0.037728745 -0.13373435 0.14997318
-0.038610604 0.26049167 -0.12483612 -0.0057122614 -0.09880996 0.01803042 -0.0074177836 0.22608145
-0.031667627 -0.039261244 -0.061241552 -0.09705892 0.03391519 -0.16647488 0.12823173 0.072967716
0.13415919 -0.054850817 0.14731173 -0.11776508 -0.16556151 -0.1525001 0.033451263 0.08039093
0.08498313 0.14404736 0.10436706 0.0601523 0.10276001 0.0748163 0.08737713 -0.12837629
-0.13134684 -0.028553817 -0.056228414 -0.22869104 0.22599366 -0.013702326 -0.15162764 -0.079177484
-0.09684377 -0.07483484 -0.019658823 -0.20152768 0.0399883 -0.06826919 0.04365815 0.0294501
-0.088823 -0.091719076 -0.20627493 -0.18212354 0.1272933 0.08454916 -0.09300991 0.043694787
0.11535684 -0.13904335 -0.086065516 0.02003169 -0.06945494 -0.14796528 -0.1647092 -0.15066361
-0.022953834 -0.04670453 0.078224026 0.18509197 -0.23897532 -0.14233191 0.09071 -0.14068103
0.17528759 0.1360265 -0.12451346 -0.124054745 0.10127938 0.058208987 0.005371518 0.10502973
-0.11681799 -0.2231856 -0.1404618 -0.18640572 -0.07339368 -0.12332069 0.11267893 -0.19497551
0.09205712 -0.22422467 -0.10659101 -0.028999675 0.14207809 -0.05621768 0.031807043 -0.004386567
0.030518103 0.029409572 0.003975736 -0.1580522 -0.119760334 -0.10928537 -0.13523605 0.2561378
00000000: 29e9 ec3d c094 1e3d 1b8e 1abd 52aa 843d
00000010: a7d6 c4bd 18e8 6fbc ac88 293d 424f 0dbe
00000020: 311e 03be dd22 d53c 6361 af3d 12fb 0e3e
00000030: 3592 823d d72c 373e d39c e1bd 08eb 64bc
00000040: e2bb 753b 4c56 833e 5bed d63d 43d8 dd3d
00000050: c21b 763b 7ab3 c9bd 9224 8e3d 0ed3 a6bd
00000060: 161b ed3c 3947 41be 1524 19bd aa44 4f3e
00000070: d460 80bd 8bdd 483e 212c 033e 939c 4cbe
00000080: d756 c33d acc6 5fbd 1ea4 5ebe 58e1 333d
00000090: 274d 383e e65c e6bd 83ce b23c f8a2 c73d
000000a0: 0435 2b3e 45c8 01be 72fe 653e 28e8 ea3d
000000b0: 02c4 703d afac aebe 8c5e 07bb 3c14 15be
000000c0: eeeb b8bd ee8f 343c d75e 2d3c bd37 aabd
000000d0: 086f 0b3e 8e54 8b3d bf75 e4bd 458c f13d
000000e0: a34a a33d 16cb b93d acfd bd3b 4c52 82bd
000000f0: 9616 8a3d 6c88 743d 0a7b 0b3e 25c9 043e
00000100: 937f 583d 4dc5 adbd b112 a7bd 7eb4 f03d
00000110: 3645 873d b020 a1be 8a3b 30be 5591 793d
00000120: cd58 933d b7a9 01be 9f4d 263e 3078 a4bc
00000130: cfbe 47bd 250a 44be bd7f 66bc 3bbc d1bd
00000140: 66b0 a83d e115 df3d 6d6b 7f3d 2c33 2ebd
00000150: f1e1 0e3e b95d 2c3d 85c0 1cbd daad 063e
00000160: 1856 dbbc bd56 1fbe 1612 513d 222f 5abe
00000170: 443b 923e be4d f3bd 3273 b03a 06c9 bebd
00000180: 926e 4dbe 8e0d 5cbd 5bbc 9cbb 9db4 b03d
00000190: 8bfa fabd 1ea0 9cbe e708 76bd db92 e1bd
000001a0: 68c0 893d f027 473e 82a3 413d 7b6b 6a3c
000001b0: 88e6 3dbe 7c79 52bd 54bf ba3c 0895 393e
000001c0: 98dc bdbd 4145 993e 1c81 0c3d 7660 b0bb
000001d0: d1c4 a3bd 0cde 2f3d cc86 3cbd 23a5 353d
000001e0: 7993 7dbb 983f b4be 58f4 c73d a11c 2b3e
000001f0: c50e 6b3b 16f8 f73d 114c 973b ad9c bebe
00000200: 3250 af3b c477 e6bc 5cf8 ae3b cd91 343e
00000210: 36ec 9b3d 85a2 273e 3cff 30bb bf05 31be
00000220: 26e7 443e cb77 35bc c767 ab3d b254 9e3d
00000230: 488f d33d f743 773a 67cd 713d c35f 413d
00000240: 804d 153e 147d 48be 7b83 edbd 26e3 1bbc
00000250: 4a66 0bbe 7589 1a3d a8f1 08be 9292 193e
00000260: 2726 1ebd 2a5f 853e 14aa ffbd ec2d bbbb
00000270: e05c cabd 88b4 933c e110 f3bb e581 673e
00000280: eab5 01bd 66d0 20bd 6cd8 7abd d4c6 c6bd
00000290: a7ea 0a3d 6478 2abe 2e4f 033e 1970 953d
000002a0: 0761 093e 40ab 60bd e3d8 163e d12e f1bd
000002b0: f588 29be fc28 1cbe 3104 093d 00a4 a43d
000002c0: a30b ae3d 2781 133e 66be d53d 4262 763d
000002d0: d773 d23d 4a39 993d c8f2 b23d 1375 03be
000002e0: c97f 06be b2e9 e9bc c44f 66bd fc2d 6abe
000002f0: e26a 673e b97f 60bc 4744 1bbe ce27 a2bd
00000300: 0756 c6bd 0243 99bd 8a0b a1bc 465d 4ebe
00000310: c6ca 233d b8d0 8bbd e3d2 323d 5641 f13c
00000320: d5e8 b5bd 36d7 bbbd bc39 53be 987e 3abe
00000330: 2d59 023e 1c28 ad3d fb7b bebd 4ef9 323d
00000340: 3540 ec3d 6161 0ebe 1e43 b0bd 8019 a43c
00000350: 643e 8ebd 3684 17be 87a9 28be 9047 1abe
00000360: ae09 bcbc 404d 3fbd eb33 a03d c088 3d3e
00000370: f2b5 74be 75bf 11be 2ac6 b93d b00e 10be
00000380: 977e 333e 884a 0b3e ea00 ffbd 6a10 febd
00000390: 906b cf3d 8c6c 6e3d 8f03 b03b d419 d73d
000003a0: 453e efbd c48a 64be 38d5 0fbe 24e1 3ebe
000003b0: 6d4f 96bd 8f8f fcbd 36c4 e63d a9a7 47be
000003c0: 7188 bc3d 279b 65be 634c dabd ba90 edbc
000003d0: eb7c 113e 8344 66bd 1a48 023d 31bd 8fbb
000003e0: 1a01 fa3c 58ec f03c e446 823b 70d8 21be
000003f0: e844 f5bd 02d1 dfbd 527b 0abe 7e24 833e

conv1.map_to_dir.map_to_feat.weight f4 [32, 32]
0.059229597 0.12882997 0.123994425 -0.14674409 0.08614875 0.14226264 -0.1153673 -0.08522978
0.16632494 -0.13414726 -0.11021415 -0.14779589 -0.022649316 0.07245062 -0.05250353 -0.00064644834
0.051063202 -0.081327446 0.08254639 0.036070496 -0.14393233 -0.1458741 -0.069411136 -0.027757514
0.05863737 -0.15968575 -0.038081426 0.0510918 -0.030227972 0.10366181 0.16784704 -0.1638255
-0.12417157 -0.08188713 0.043402128 -0.06629191 -0.15589803 0.085353605 0.08117574 0.095374145
-0.005611558 0.114380896 0.14153731 -0.06932535 -0.038635384 -0.15540497 -0.11764869 -0.06750827
-0.16908063 -0.085218884 -0.07796798 -0.011271774 0.15932055 -0.15082313 0.089128 -0.063062266
-0.0919012 0.1455864 -0.082419276 0.0031871868 -0.14056803 -0.1422645 0.15498391 0.03812471
-0.11446011 0.07360532 -0.08030713 0.1549943 -0.051537924 0.03107955 -0.10391556 0.059205025
-0.022623332 0.035591897 0.10429864 -0.17551517 -0.105463155 -0.03581224 -0.14172553 0.15948229
0.15762828 0.0065591666 -0.16279651 0.05223693 0.16618966 -0.14278355 -0.040537387 -0.1686349
0.17274486 -0.1233512 0.09456062 -0.1440464 0.16609038 0.07235841 -0.14718312 -0.07865833
-0.045299433 -0.06598226 -0.12024664 -0.07313452 0.048719626 -0.14789192 0.09157007 0.024444835
0.09951406 -0.051396754 -0.14159536 0.09626686 0.15904307 -0.164763 -0.0692699 0.035838686
0.0074810656 0.0889932 -0.031072553 0.12251086 0.1644142 0.010052002 -0.17444699 0.053788524
0.13880548 -0.09368119 0.13755035 0.10685423 0.13030924 0.012833652 0.15518177 -0.084778234
-0.15083504 0.122228995 0.031590622 0.08041182 -0.010970066 0.1416073 -0.04427929 0.069402985
0.12046667 -0.07899818 0.026606988 0.13559884 -0.087813675 -0.07958684 -0.1236555 -0.101624504
-0.01878152 -0.091180995 0.12734419 -0.017893171 0.051888037 0.06763872 0.030377679 -0.07000429
0.09289119 -0.12865719 -0.033551946 -0.14696802 0.13542616 0.16026655 -0.08283769 0.050903637
0.0032336325 -0.15904048 -0.14205553 -0.045487914 0.06506873 0.09817356 -0.049419917 -0.1567731
-0.06335232 0.023479883 0.032706354 -0.017684838 0.068597406 -0.13890785 -0.124721244 -0.011721355
-0.04026866 0.09047573 0.0058741537 -0.15933612 -0.06168448 0.16460992 -0.064401776 0.08478606
-0.12617919 0.042522985 0.05587711 0.16348094 -0.036675133 -0.032102283 -0.052700713 0.035364956
-0.0517471 -0.13390288 0.17012341 -0.020326981 -0.11417098 -0.09499428 -0.08535845 -0.07987932
-0.0869547 0.06744581 0.11858555 -0.10279275 -0.12547028 0.03183756 0.11968944 -0.108117625
-0.1753018 -0.06942856 0.07874411 -0.15439408 0.14065045 0.0042034527 0.11984907 0.016449893
-0.16632447 0.019011306 -0.06447389 -0.012366539 0.07780546 0.102016 -0.14671324 -0.08466882
-0.039610114 0.090085074 -0.012909285 -0.092860445 -0.11926804 -0.13354681 -0.027906945 -0.011369239
0.12944552 -0.06720679 -0.090488926 0.12479188 0.05374425 0.049916178 -0.04607171 -0.06062329
-0.08396449 0.023091963 -0.048033096 0.06913628 -0.05949291 0.16883767 0.10687771 0.017223457
-0.0058272444 0.009635507 0.16925895 0.019308103 0.0524413 -0.14057103 0.1590125 -0.17538418
00000000: bc9a 723d 01ec 033e caf0 fd3d 1544 16be
00000010: c16e b03d 4cad 113e b145 ecbd f38c aebd
00000020: 1651 2a3e e65d 09be f5b7 e1bd ce57 17be
00000030: 0f8b b9bc fe60 943d f10d 57bd 6a76 29ba
00000040: a627 513d 018f a6bd 150e a93d a8be 133d
00000050: ff62 13be 0560 15be 6d27 8ebd ba63 e3bc
00000060: bd2d 703d a984 23be 45fb 1bbd a345 513d
00000070: a7a0 f7bc a54c d43d 18e0 2b3e dfc1 27be
00000080: aa4d febd 71b4 a7bd 6ec6 313d 0ec4 87bd
00000090: bca3 1fbe dfcd ae3d 773f a63d 8553 c33d
000000a0: 29e1 b7bb 8840 ea3d 28ef 103e 73fa 8dbd
000000b0: 2340 1ebd 7b22 1fbe ccf1 f0bd c741 8abd
000000c0: 7923 2dbe 3d87 aebd adad 9fbd 3fad 38bc
000000d0: ed24 233e 6171 1abe be88 b63d ca26 81bd
000000e0: b236 bcbd 9a14 153e 70cb a8bd 1fe0 503b
000000f0: 11f1 0fbe c9ad 11be 1ab4 1e3e a828 1c3d
00000100: 106a eabd 63be 963d 1178 a4bd d3b6 1e3e
00000110: 6e19 53bd 8a9a fe3c aed1 d4bd f880 723d
00000120: 9154 b9bc cfc8 113d 869a d53d 40ba 33be
00000130: 11fd d7bd dbaf 12bd 7f20 11be 534f 233e
00000140: 4f69 213e 47ee d63b 21b4 26be 64f6 553d
00000150: 9f2d 2a3e da35 12be 880a 26bd a1ae 2cbe
00000160: 07e4 303e 8e9f fcbd 00a9 c13d e680 13be
00000170: 9913 2a3e a530 943d 2cb7 16be 9e17 a1bd
00000180: e68b 39bd b521 87bd df43 f6bd 8dc7 95bd
00000190: 3b8e 473d fb70 17be 1789 bb3d 8940 c83c
000001a0: 07ce cb3d 6785 52bd 60fe 10be 8f27 c53d
000001b0: 30dc 223e a2b7 28be 61dd 8dbd 96cb 123d
000001c0: ba23 f53b 1142 b63d de8b febc f9e6 fa3d
000001d0: 325c 283e 27b1 243c 3ba2 32be 5b51 5c3d
000001e0: 0623 0e3e ecdb bfbd 00da 0c3e 64d6 da3d
000001f0: c96f 053e 3d44 523c f8e7 1e3e 36a0 adbd
00000200: 8074 1abe 3253 fa3d 2b65 013d f4ae a43d
00000210: cbbb 33bc 8101 113e 335e 35bd 2723 8e3d
00000220: 3bb7 f63d ccc9 a1bd e6f6 d93c 6cda 0a3e
00000230: a8d7 b3bd 6dfe a2bd 183f fdbd 8220 d0bd
00000240: b4db 99bc 1abd babd 8466 023e b394 92bc
00000250: 8d88 543d 2b86 8a3d 9cda f83c 695e 8fbd
00000260: bc3d be3d b6be 03be c46d 09bd c97e 16be
00000270: 28ad 0a3e ea1c 243e cfa6 a9bd 5580 503d
00000280: 5aeb 533b 82db 22be 0177 11be 8951 3abd
00000290: c142 853d 380f c93d 8a6c 4abd 2189 20be
000002a0: dcbe 81bd e258 c03c 19f7 053d cbdf 90bc
000002b0: cc7c 8c3d dc3d 0ebe da6d ffbd ed0a 40bc
000002c0: c0f0 24bd 574b b93d f97b c03b 0229 23be
000002d0: dea8 7cbd 818f 283e 14e5 83bd 50a4 ad3d
000002e0: 1e35 01be 952c 2e3d 66df 643d 8c67 273e
000002f0: aa38 16bd af7d 03bd b4dc 57bd d8da 103d
00000300: c4f4 53bd d61d 09be d534 2e3e c584 a6bc
00000310: 7ad2 e9bd 5c8c c2bd 69d0 aebd c597 a3bd
00000320: 4e15 b2bd 0721 8a3d fbdc f23d 0185 d2bd
00000330: 487b 00be 1a68 023d bd1f f53d c66c ddbd
00000340: 5182 33be 9030 8ebd 9844 a13d 7b19 1ebe
00000350: ac06 103e 1ebd 893b 6e73 f53d edc1 863c
00000360: f650 2abe 99bd 9b3c e30a 84bd 069d 4abc
00000370: 7858 9f3d c4ed d03d ff3b 16be d966 adbd
00000380: 373e 22bd 867e b83d 7781 53bc 9e2d bebd
00000390: cd42 f4bd 7fc0 08be 1b9d e4bc 0b46 3abc
000003a0: 5e8d 043e b7a3 89bd 4252 b9bd e392 ff3d
000003b0: ee22 5c3d e874 4c3d b0b5 3cbd 2050 78bd
000003c0: 93f5 abbd 5b2b bd3c 5abe 44bd 5297 8d3d
000003d0: d6ae 73bd c8e3 2c3e b3e2 da3d 3518 8d3c
000003e0: 78f2 bebb 3fde 1d3c 3852 2d3e 072c 9e3c
000003f0: b0cc 563d daf1 0fbe 2cd4 223e e997 33be

relu1.map_to_dir.weight f4 [32, 32]
-0.01676324 0.009301268 -0.09563639 0.011300699 0.115664184 -0.02012586 0.021228725 -0.12821347
-0.100010686 0.27446306 0.14005026 0.07026791 -0.01453705 0.3471439 -0.07118304 -0.15343682
-0.1801452 -0.004197959 0.062998176 0.12928082 0.07543637 -0.030169116 0.010270806 0.0008645316
-0.00629095 0.09102471 0.040432803 -0.19001554 0.033919156 -0.14646457 -0.1426225 -0.0894018
-0.054872688 0.112710185 -0.07706481 -0.21693785 0.02826532 0.25334692 -0.075236395 0.08635208
-0.005625602 -0.12808615 -0.09072221 -0.12039338 0.06831395 -0.11432607 -0.17165712 0.28166673
0.053339813 0.009098234 -0.029241929 0.17696123 0.04429051 -0.22708564 0.06585165 -0.28037584
0.029650182 -0.074005574 -0.1094235 -0.039672047 0.15801494 -0.0051857303 -0.1446293 0.12568226
0.05423368 -0.17838448 -0.09417423 -0.14276102 0.052525472 0.084849425 0.12178575 -0.061580695
-0.10424729 0.051138785 0.26266655 -0.21363293 0.038616326 0.12135997 -0.037169278 -0.029418645
-0.23713887 0.1570373 -0.07236794 -0.012872975 0.07674099 -0.3317416 -0.03715282 0.11736811
-0.1481273 -0.111593395 0.26907358 0.02095743 -0.10953917 -0.1617349 0.028488223 -0.2075397
-0.0008604889 -0.013461644 0.0226472 -0.21027577 -0.015863974 -0.017639546 0.34481025 0.008324955
-0.008659311 0.03987588 -0.072206855 -0.20876764 -0.005826551 0.12727314 0.1719047 -0.081687495
0.035800178 0.15039538 -0.012967511 0.047994144 0.14511707 -0.038451064 0.156079 0.085863665
-0.032180883 0.04779654 -0.106173575 0.026497155 -0.08056197 -0.26977065 0.17669356 -0.1255656
-0.21146026 0.19192912 -0.16540255 -0.026167681 -0.60646176 -0.1560868 -0.0411325 -0.2356194
-0.034328196 0.15243748 -0.15479313 0.11821451 -0.14405058 -0.002054772 0.026789607 0.11085838
-0.014959461 0.026101777 -0.081786625 0.123484544 -0.10681403 -0.044530712 -0.03877149 -0.11581913
-0.0670534 0.048655666 0.06418255 -0.133073 -0.0020255696 0.0022560304 0.07561711 -0.050927356
-0.07468414 -0.19954571 -0.13843392 0.06779842 3.0307008e-05 0.18416044 -0.0803916 0.11557792
-0.2990039 0.068675585 -0.037478786 0.24192478 -0.20413792 0.05628499 -0.027135646 -0.17928879
0.024856994 0.028413225 0.028354079 -0.14190093 -0.033952948 -0.034333516 0.09656224 0.09700567
0.23384044 -0.22447422 0.0840694 0.037374843 0.06548055 0.052128006 -0.014533426 0.20830144
0.06944898 -0.08887853 0.061516747 -0.052507803 0.047627583 0.13818964 -0.41625267 -0.1753275
0.055903398 -0.07600995 -0.10814833 0.10976496 -0.09256675 -0.14825039 0.0061144745 -0.04148003
-0.0773549 -0.049159538 0.17547834 0.04064893 -0.1589143 0.08032389 -0.034277294 0.14342701
-0.007787344 -0.035839003 -0.18944216 -0.03836519 0.059995756 0.013258282 -0.1492433 -0.051400512
-0.09953061 0.000424808 -0.07507519 -0.09698526 -0.17901114 0.09479202 0.23097153 -0.02334709
0.014240874 0.0021925338 0.031662405 -0.04783678 -0.051219184 -0.18575135 -0.112177834 -0.0006049863
0.06269325 0.009491876 -0.2344195 0.011291079 -0.11942029 0.22703673 -0.008741791 -0.15751313
0.2123093 -0.21002547 0.06899877 0.065259576 -0.16033912 0.016462374 -0.043877006 0.12935077
00000000: 1053 89bc 5864 183c 03dd c3bd 9126 393c
00000010: 58e1 ec3d fdde a4bc dde7 ad3c 644a 03be
00000020: 67d2 ccbd 6c86 8c3e 5669 0f3e 9fe8 8f3d
00000030: cf2c 6ebc d8bc b13e 6ac8 91bd 8b1e 1dbe
00000040: fc77 38be 088f 89bb 3005 813d 3162 043e
00000050: 627e 9a3d 3925 f7bc e246 283c bca1 623a
00000060: 5024 cebb 2a6b ba3d de9c 253d 6f93 42be
00000070: d0ee 0a3d cffa 15be a20b 12be 4a18 b7bd
00000080: 2fc2 60bd 99d4 e63d 28d4 9dbd f524 5ebe
00000090: ac8c e73c b0b6 813e 8a15 9abd 5cd9 b03d
000000a0: f856 b8bb 0429 03be 91cc b9bd ce90 f6bd
000000b0: 2fe8 8b3d c923 eabd e2c6 2fbe 9f36 903e
000000c0: d97a 5a3d c210 153c c58c efbc 5335 353e
000000d0: f769 353d 2389 68be 3bdd 863d 6c8d 8fbe
000000e0: f0e4 f23c 3c90 97bd 6e19 e0bd 287f 22bd
000000f0: abce 213e 0fed a9bb b419 14be dab2 003e
00000100: 2324 5e3d 6caa 36be 6bde c0bd f22f 12be
00000110: f324 573d 89c5 ad3d cf6a f93d 0a3c 7cbd
00000120: 9a7f d5bd e776 513d 3b7c 863e 97c2 5abe
00000130: 272c 1e3d 938b f83d d03e 18bd 5fff f0bc
00000140: 88d4 72be 63ce 203e a435 94bd 2ce9 52bc
00000150: 612a 9d3d 09da a9be 8e2d 18bd b15e f03d
00000160: afae 17be 148b e4bd 03c4 893e ebae ab3c
00000170: 1356 e0bd d59d 25be 2260 e93c 4a85 54be
00000180: 6f92 61ba 3a8e 5cbc 9f86 b93c 8852 57be
00000190: 2af5 81bc cf80 90bc f88a b03e 6465 083c
000001a0: c8df 0dbc e454 233d 30e1 93bd 2fc7 55be
000001b0: a7ec bebb e453 023e c907 303e c64b a7bd
000001c0: 35a3 123d 3f01 1a3e af75 54bc 8295 443d
000001d0: 9299 143e dd7e 1dbd 2cd3 1f3e 4ad9 af3d
000001e0: 1ad0 03bd 4ec6 433d 8871 d9bd 9010 d93c
000001f0: adfd a4bd 611f 8abe 28ef 343e 4594 00be
00000200: 0a89 58be 1189 443e 495f 29be 9b5d d6bc
00000210: 1441 1bbf 38d5 1fbe 8d7a 28bd 3646 71be
00000220: b99b 0cbd 9218 1c3e 1782 1ebe 731a f23d
00000230: ff81 13be 5ba9 06bb e175 db3c b809 e33d
00000240: 8718 75bc 65d3 d53c bf7f a7bd 77e5 fc3d
00000250: 50c1 dabd d665 36bd dbce 1ebd 9432 edbd
00000260: 4b53 89bd 2a4b 473d 2472 833d 4a44 08be
00000270: 6bbf 04bb e9d9 133b 25dd 9a3d 3499 50bd
00000280: 00f4 98bd b655 4cbe 9fc1 0dbe e6d9 8a3d
00000290: ce3b fe37 8e94 3c3e 5aa4 a4bd 1eb4 ec3d
000002a0: 0a17 99be c9a5 8c3d 5b83 19bd 21bb 773e
000002b0: 8809 51be 178b 663d 934b debc 7b97 37be
000002c0: e5a0 cb3c dac2 e83c d046 e83c 7a4e 11be
000002d0: 3f12 0bbd 4da1 0cbd 6cc2 c53d e9aa c63d
000002e0: de73 6f3e 92dc 65be 942c ac3d 5d16 193d
000002f0: ab1a 863d 2d84 553d 9b1d 6ebc f94c 553e
00000300: 443b 8e3d f205 b6bd fcf8 7b3d 6c12 57bd
00000310: 2415 433d 9681 0d3e 121f d5be 0d89 33be
00000320: f6fa 643d 1bab 9bbd df7c ddbd 74cc e03d
00000330: a393 bdbd f3ce 17be ee5b c83b f7e6 29bd
00000340: 3f6c 9ebd 835b 49bd 98b0 333e 7e7f 263d
00000350: 6eba 22be da80 a43d 5966 0cbd 88de 123e
00000360: fa2c ffbb ebcb 12bd 20fd 41be d124 1dbd
00000370: 1cbe 753d 4439 593c 3cd3 18be 5889 52bd
00000380: b4d6 cbbd c4b8 de39 05c1 99bd 35a0 c6bd
00000390: b24e 37be 5222 c23d cd83 6c3e 6642 bfbc
000003a0: 8e52 693c 9db0 0f3b 70b0 013d 80f0 43bd
000003b0: 35cb 51bd 9a35 3ebe 7ebd e5bd f197 1eba
000003c0: 5265 803d d083 1b3c aa0b 70be 38fe 383c
000003d0: a092 f4bd 517c 683e bb39 0fbc 1f4b 21be
000003e0: 9c67 593e eb10 57be 3a4f 8d3d d0a6 853d
000003f0: f02f 24be 1adc 863c 60b8 33bd 8774 043e

conv2.vn_linear_1.map_to_feat.weight f4 [64, 33]
0.03580406 0.18973997 0.047154624 -0.0056799646 -0.021315785 0.1133973 -0.0033240556 -0.08312904
-0.07036995 -0.01715228 -0.07794903 -0.05037216 0.15780962 0.016007606 -0.022372387 0.08460851
-0.103818126 0.08048714 -0.109452754 -0.057711802 -0.14322455 0.00082896644 -0.042112093 0.036597293
0.013048156 0.039024614 0.094736926 0.118884005 -0.117552474 -0.026235966 0.16449459 0.058349345
-0.373686 0.005134233 0.10540522 0.17527738 0.011714791 -0.071114406 -0.08133673 -0.09547659
-0.08014888 -0.015439128 0.16308577 -0.09382569 0.063400604 -0.061292034 0.090080716 0.06806376
0.039918534 0.06262828 0.059149597 0.040127527 0.12669197 -0.19847257 0.090068035 -0.081198215
-0.045676637 -0.03393284 0.11827487 -0.0974434 0.0401558 0.10811627 0.18404962 -0.0698763
0.021851817 -0.008376706 0.108876914 -0.016558738 -0.17950246 -0.0069627054 -0.036964267 -0.1383354
0.077933006 -0.2051575 -0.03753926 -0.06363123 -0.1140937 0.10253676 0.07871294 -0.0825788
-0.023798078 0.082247116 -0.11044698 -0.046004284 -0.09813342 0.16895065 -0.0065061385 0.088083595
-0.103624664 -0.10981175 0.112373896 -0.10961698 -0.18350674 0.1062814 0.12815261 0.079670966
0.104092725 -0.012740006 0.13216026 0.068036646 -0.11127524 0.040748052 0.18198478 0.055303384
-0.0010136645 0.046452627 0.041817468 -0.08377685 -0.14579795 0.078659125 -0.26196197 0.23970667
-0.12376524 0.023578051 0.22969277 -0.19213803 0.053508457 -0.04282214 0.005583424 0.11846806
-0.082432665 0.14183943 -0.03281312 -0.16615796 -0.016556034 -0.08099018 -0.016142854 0.09859409
-0.098828815 -0.029523782 0.04441722 0.18797664 0.018769067 -0.06938785 0.19377969 -0.047917597
0.106958546 0.0056147603 0.08863153 -0.06017796 -0.04528386 0.15920909 0.0012614477 0.15970266
-0.15672539 0.16847593 -0.039868195 0.17618321 -0.15860496 0.0731338 0.18238427 0.052495304
-0.037151158 0.10969191 -0.059997037 -0.09391437 0.09807503 0.07494173 0.009537582 -0.16242497
0.12459587 0.0069182706 -0.044606138 -0.14339305 -0.16345434 -0.04348964 -0.0025366812 0.0016858147
-0.15519342 0.090555936 -0.031956855 0.06721655 0.024133543 0.061639264 0.1264108 -0.10632459
-0.11799008 0.10657488 -0.070352316 0.10864025 0.028649706 0.061205823 0.1240716 0.091153234
-0.09835174 -0.039766304 0.019294187 -0.046835605 -0.025062976 0.016220354 -0.08823465 0.04167764
-0.0069053243 -0.07291726 0.15905446 -0.047400016 -0.09859378 -0.22873555 0.00983459 0.17128962
-0.21249008 0.16071491 -0.012924807 0.079902925 -0.14518589 0.10051384 0.08557458 -0.043493368
-0.1411099 0.1956162 -0.045977183 -0.075817235 -0.08613379 -0.0058421036 -0.1376864 -0.08636889
-0.046008017 -0.008131158 -0.17225423 0.13051543 0.16116035 -0.00835063 -0.051298745 -0.12196149
0.0012965751 -0.105869666 -0.01057094 0.030257633 -0.15591477 -0.0019680217 -0.47592622 -0.058039334
0.043159835 0.0865137 -0.04960285 -0.037840147 -0.018801171 -0.045610867 0.07018294 -0.029045427
0.0063165016 0.13367927 -0.16948432 0.014392004 0.099107645 -0.04497991 -0.12222523 -0.09668367
-0.08572715 -0.17511597 0.08691214 -0.023998372 0.009516607 0.10876403 -0.023617897 -0.0850212
00000000: 47a7 123d 324b 423e 3525 413d ff1e babb
00000010: 719e aebc d83c e83d 66d8 59bb 8f3f aabd
00000020: 1f1e 90bd f082 8cbc bea3 9fbd 0a53 4ebd
00000030: d898 213e 6222 833c 4c46 b7bc 3a47 ad3d
00000040: 999e d4bd 71d6 a43d c428 e0bd 3663 6cbd
00000050: 75a9 12be ff4e 593a bb7d 2cbd 0be7 153d
00000060: efc7 553c 46d8 1f3d 6f05 c23d 7579 f33d
00000070: 5abf f0bd cfec d6bc 4571 283e b9ff 6e3d
00000080: c553 bfbe 113d a83b b1de d73d ea7b 333e
00000090: 65ef 3f3c 6ea4 91bd df93 a6bd 3b89 c3bd
000000a0: 1925 a4bd 65f4 7cbc f5ff 263e af27 c0bd
000000b0: 2dd8 813d 5b0d 7bbd 3d7c b83d 0365 8b3d
000000c0: 9e81 233d 4143 803d d946 723d c35c 243d
000000d0: 8abb 013e 653c 4bbe 9775 b83d 404b a6bd
000000e0: 6d17 3bbd 29fd 0abd 183a f23d 6890 c7bd
000000f0: 687a 243d 106c dd3d 8177 3c3e 4e1b 8fbd
00000100: 9502 b33c 743e 09bc dcfa de3d 31a6 87bc
00000110: 7ecf 37be 6827 e4bb d867 17bd cca7 0dbe
00000120: 579b 9f3d cf14 52be c4c2 19bd 1751 82bd
00000130: f5a9 e9bd cbfe d13d 4034 a13d 131f a9bd
00000140: 30f4 c2bc 2d71 a83d 0732 e2bd fd6e 3cbd
00000150: 2dfa c8bd 6601 2d3e 7231 d5bb 2c65 b43d
00000160: 2b39 d4bd fce4 e0bd 4924 e63d de7e e0bd
00000170: 31e9 3bbe 10aa d93d 703a 033e 882a a33d
00000180: 912e d53d 75bb 50bc 0555 073e cc56 8b3d
00000190: 46e4 e3bd 6ee7 263d 385a 3a3e cd85 623d
000001a0: f0dc 84ba 1c45 3e3d cb48 2b3d 3293 abbd
000001b0: 0f4c 15be 0918 a13d e11f 86be aa75 753e
000001c0: a178 fdbd c226 c13c 9534 6b3e d5bf 44be
000001d0: af2b 5b3d 4566 2fbd 28f5 b63b 629f f23d
000001e0: 75d2 a8bd 5b3e 113e 0d67 06bd 5025 2abe
000001f0: 85a0 87bc 2ede a5bd 053e 84bc b3eb c93d
00000200: c366 cabd dcdb f1bc d5ee 353d f37c 403e
00000210: 96c1 993c 381b 8ebd 2f6e 463e 3e45 44bd
00000220: 150d db3d 06fc b73b 7384 b53d 2a7d 76bd
00000230: 927b 39bd b507 233e 2957 a53a 1889 233e
00000240: 9f7c 20be f484 2c3e d54c 23bd 5f69 343e
00000250: 5769 22be 2cc7 953d f1c2 3a3e 5105 573d
00000260: d02b 18bd 27a6 e03d 74bf 75bd 2d56 c0bd
00000270: 90db c83d 0d7b 993d 8543 1c3c bb52 26be
00000280: 1f2c ff3d a9b2 e23b edb4 36bd a1d5 12be
00000290: 9360 27be 3122 32bd 733e 26bb 8ef6 dc3a
000002a0: 06eb 1ebe 6475 b93d 31e5 02bd d5a8 893d
000002b0: b5b3 c53c 7479 7c3d d571 013e b5c0 d9bd
000002c0: c8a4 f1bd ee43 da3d e014 90bd c87e de3d
000002d0: cab2 ea3c f5b2 7a3d 4019 fe3d 8cae ba3d
000002e0: a36c c9bd fee1 22bd d80e 9e3c b1d6 3fbd
000002f0: df50 cdbc 8ce0 843c 5eb4 b4bd 2cb6 2a3d
00000300: 0f46 e2bb a555 95bd 2cdf 223e 8526 42bd
00000310: 89eb c9bd a739 6abe 4321 213c 8c66 2f3e
00000320: 0097 59be 7392 243e 92c2 53bc 25a4 a33d
00000330: 9cab 14be 33da cd3d ba41 af3d 1a26 32bd
00000340: 1d7f 10be 9d4f 483e 9252 3cbd 1146 9bbd
00000350: ea66 b0bd 1e6f bfbb aafd 0cbe 2ce2 b0bd
00000360: e772 3cbd 8c38 05bc 6a63 30be d6a5 053e
00000370: 3807 253e 15d1 08bc a21e 52bd f2c6 f9bd
00000380: d7f1 a93a 32d2 d8bd bc31 2dbc dbde f73c
00000390: 1fa8 1fbe edf9 00bb 9aac f3be a7ba 6dbd
000003a0: 5ec8 303d 182e b13d 5c2c 4bbd 45fe 1abd
000003b0: ea04 9abc 76d2 3abd 13bc 8f3d adf0 edbc
000003c0: a8fa ce3b 38e3 083e 4c8d 2dbe 71cc 6b3c
000003d0: f3f8 ca3d db3c 38bd 3951 fabd 1702 c6bd
000003e0: b791 afbd 9a51 33be fefe b13d 3c98 c4bc
000003f0: 8beb 1b3c adbf de3d 527a c1bc 981f aebd

conv2.relu_1.map_to_dir.weight f4 [64, 64]
-0.26198003 -0.13239409 0.051739644 -0.023883898 -0.110585384 0.12183251 -0.0922602 0.0638586
-0.042685904 0.16209535 -0.04276468 -0.09092258 -0.1212479 -0.09868007 0.053600226 0.00763418
-0.03174817 -0.030381812 0.13809526 0.03151736 -0.074172445 -0.08710066 -0.06680842 -0.17372105
0.07909905 0.14257088 -0.0485257 -0.05410763 -0.18930942 0.16852857 -0.05679188 -0.15934353
-0.038725615 -0.074481234 -0.029247869 -0.07084342 -0.08789315 -0.0043552862 0.18400732 -0.061358135
0.013408082 0.00961246 -0.05012613 0.049781587 -0.035031885 0.23148774 -0.07757696 0.08960685
-0.032579947 -0.0030209182 0.18790196 0.18175198 -0.001598507 0.04969963 -0.20119056 -0.0023147098
-0.2717476 0.08669896 -0.0102854185 0.02093881 0.14566846 -0.18475184 0.0099707525 0.059366103
-0.028603736 -0.02146519 -0.041216694 0.17437482 -0.06253197 0.016894216 -0.08712322 0.17157431
0.0059695323 0.21916586 -0.022935959 -0.2712109 -0.064003125 -0.054340396 0.25607625 0.044980332
0.12841448 -0.043203246 0.18849555 0.14590174 -0.06205184 -0.10546721 -0.08924072 -0.1402501
0.011222099 0.009020214 -0.10022135 0.12967388 -0.11579141 0.12420697 -0.13002373 -0.045750994
0.04897226 -0.15569535 0.22197752 0.13524425 -0.021474952 -0.0234291 0.12395693 -0.077655636
-0.029996091 0.07858576 0.092901245 0.16138084 -0.0187601 0.11522163 -0.016753487 0.04533429
0.11221461 0.02650676 0.0936665 0.0048038596 0.104110904 -0.1771764 0.09711133 0.0733178
-0.16368467 0.013714767 0.030555258 0.16860858 0.06441198 -0.13542698 -0.027177025 0.04440129
-0.06461575 -0.10793729 -0.06144647 0.1570496 0.16354628 -0.16815025 -0.11479471 0.026088936
-0.057880685 0.19934763 -0.10622134 -0.002162773 0.11016123 -0.025751755 0.13060237 0.028740363
0.040712003 0.056131642 -0.00886832 0.117543794 0.08537277 -0.12330642 -0.15149511 0.08073116
-0.29365328 -0.028811896 0.14115344 0.2714161 -0.1334594 -8.4126965e-05 -0.20084871 -0.020538092
0.12990871 -0.039355174 0.06346013 0.1319609 0.074107036 0.0058559366 -0.036463868 -0.008489695
0.0053116935 0.09733293 0.10596448 0.09271838 0.02329563 -0.067350715 -0.116391405 -0.042777084
-0.07211128 0.059511527 0.054402415 0.065902926 0.06320002 -0.15053007 -0.045975637 0.033902757
-0.15951642 0.16826321 0.087208666 0.090015866 -0.028664397 -0.0363047 -0.057402954 0.06525657
-0.09481583 -0.056103665 -0.104278445 -0.009387052 -0.21715847 -0.019080875 0.17933978 0.02505419
-0.0035406617 -0.080754675 -0.00794548 0.11310928 -0.27976626 0.051959533 0.039644815 -0.15064102
-0.11999505 0.1460003 -0.027359437 -0.12695989 0.15744182 -0.02607895 -0.19339886 -0.091550305
0.0805894 0.04552808 0.08943713 0.12202657 0.028958764 0.027757263 -0.16215669 -0.1504369
-0.047332194 0.011845799 -0.20242965 0.07895751 -0.11681097 -0.10011317 -0.06175753 0.12585333
0.16254777 0.042327527 -0.011674754 0.002783363 0.04938656 -0.24476568 0.13326177 0.16513793
0.17015089 0.06511441 -0.025764352 0.087655134 -0.036525924 0.21912915 0.13313727 -0.06575814
-0.04993057 0.046832588 -0.067037694 0.005790908 -0.12443716 -0.009284492 0.0093445955 0.19309154
00000000: 3f22 86be 5192 07be f3ec 533d 2aa8 c3bc
00000010: 977a e2bd 5383 f93d eaf2 bcbd 4cc8 823d
00000020: 6ad7 2ebd 53fc 253e 042a 2fbd 9e35 babd
00000030: d250 f8bd c718 cabd e98b 5b3d 2528 fa3b
00000040: 5e0a 02bd 47e3 f8bc d868 0d3e 5918 013d
00000050: b9e7 97bd d561 b2bd dad2 88bd eee3 31be
00000060: affe a13d 1afe 113e e2c2 46bd f69f 5dbd
00000070: 54da 41be c192 2c3e 9a9e 68bd f32a 23be
00000080: c09e 1ebd 9e89 98bd 3a99 efbc 5b16 91bd
00000090: 5301 b4bd cab6 8ebb 6a6c 3c3e ab52 7bbd
000000a0: 92ad 5b3c 947d 1d3c 0f51 4dbd c7e7 4b3d
000000b0: 987d 0fbd 1f0b 6d3e abe0 9ebd cc83 b73d
000000c0: 8d72 05bd 99fa 45bb 5f69 403e 311d 3a3e
000000d0: ff84 d1ba d791 4b3d e604 4ebe 63b2 17bb
000000e0: 8022 8bbe 398f b13d 2c84 28bc de87 ab3c
000000f0: 1d2a 153e 962f 3dbe 5e5c 233c df29 733d
00000100: 6252 eabc c4d7 afbc d6d2 28bd 508f 323e
00000110: c310 80bd bd65 8a3c a96d b2bd 2db1 2f3e
00000120: 119c c33b 046d 603e 31e4 bbbc 28dc 8abe
00000130: 1214 83bd 0994 5ebd 6d1c 833e 4c3d 383d
00000140: 167f 033e e3f5 30bd fa04 413e 4467 153e
00000150: 122a 7ebd 31ff d7bd d7c3 b6bd b99d 0fbe
00000160: e5dc 373c 85c9 133c da40 cdbd 3bc9 043e
00000170: 0c24 edbd 3960 fe3d f124 05be 6565 3bbd
00000180: 2397 483d 9a6e 1fbe 134e 633e 787d 0a3e
00000190: 3dec afbc 62ee bfbc 22dd fd3d eb09 9fbd
000001a0: 5dba f5bc 92f1 a03d 0243 be3d 0541 253e
000001b0: c8ae 99bc 51f9 eb3d 9c3e 89bc 73b0 393d
000001c0: c6d0 e53d b424 d93c 39d4 bf3d b269 9d3b
000001d0: 1938 d53d bb6d 35be 4ee2 c63d a527 963d
000001e0: f49c 27be e7b3 603c 054f fa3c baa7 2c3e
000001f0: 6eea 833d 5fad 0abe 5aa2 debc 21de 353d
00000200: 4355 84bd 3a0e ddbd 4baf 7bbd 9cd1 203e
00000210: ad78 273e 942f 2cbe 7d19 ebbd 77b8 d53c
00000220: 4c14 6dbd c921 4c3e 938a d9bd 4fbd 0dbb
00000230: 369c e13d 58f5 d2bc a1bc 053e e970 eb3c
00000240: a1c1 263d 4bea 653d 6e4c 11bc cdba f03d
00000250: ebd7 ae3d 1488 fcbd 8921 1bbe 6156 a53d
00000260: b959 96be ed06 ecbc 878a 103e 0df7 8a3e
00000270: 95a9 08be 526d b0b8 49ab 4dbe 803f a8bc
00000280: ca06 053e e432 21bd 62f7 813d c220 073e
00000290: 6ec5 973d 28e3 bf3b 235b 15bd 5d18 0bbc
000002a0: b70d ae3b 7d56 c73d e803 d93d 22e3 bd3d
000002b0: 7ad6 be3c 2cef 89bd 9e5e eebd 0637 2fbd
000002c0: 14af 93bd 5cc2 733d 11d5 5e3d 1df8 863d
000002d0: 036f 813d 8e24 1abe f350 3cbd 9edd 0a3d
000002e0: 4658 23be 314d 2c3e 759a b23d 3d5a b83d
000002f0: 99d1 eabc 3db4 14bd 5c1f 6bbd 3da5 853d
00000300: cd2e c2bd f5cc 65bd f08f d5bd 26cc 19bc
00000310: ca5e 5ebe 7f4f 9cbc d9a4 373e 723e cd3c
00000320: 720a 68bb b562 a5bd c22d 02bc d7a5 e73d
00000330: 863d 8fbe 85d3 543d 9a62 223d a441 1abe
00000340: f7bf f5bd 1a81 153e e620 e0bc c601 02be
00000350: 6e38 213e 86a3 d5bc 5a0a 46be ba7e bbbd
00000360: 0e0c a53d a77b 3a3d d02a b73d 11e9 f93d
00000370: ee3a ed3c 3363 e33c 670c 26be 210c 1abe
00000380: 67df 41bd e214 423c b849 4fbe 7ab4 a13d
00000390: 973a efbd 2208 cdbd 77f5 7cbd b2df 003e
000003a0: ec72 263e a15f 2d3d 7847 3fbc 1569 363b
000003b0: 9049 4a3d dba3 7abe c675 083e eb19 293e
000003c0: 093c 2e3e b45a 853d c30f d3bc 8984 b33d
000003d0: 359c 15bd 6463 603e 2355 083e 34ac 86bd
000003e0: ff83 4cbd 87d3 3f3d 0f4b 89bd a8c1 bd3b
000003f0: e9d8 febd fb1d 18bc 131a 193c cab9 453e

conv2.vn_linear_2.map_to_feat.weight f4 [64, 64]
0.029823521 0.1730273 0.101614244 0.10735162 0.09600202 0.0106379455 0.06341359 -0.042470235
-0.20160453 0.015838562 0.047891818 -0.047066584 -0.014573604 0.087404326 0.14393756 0.0083571235
0.057058033 0.09869817 0.113003366 0.06106984 0.021457858 -0.12156741 -0.06110158 0.00928917
-0.0033152418 -0.070606746 -0.019046055 0.030272204 -0.124971405 -0.09920917 0.012608496 0.013208612
0.038619526 0.117825665 0.0641042 0.08229983 0.0741696 -0.22266153 0.038481094 0.07032904
-0.07457517 0.057726666 0.061701197 0.11814446 -0.07503658 -0.07060842 0.0331749 0.1006363
-0.23684812 -0.02422815 -0.017017 -0.026503475 -0.074924946 0.018072257 0.03471977 -0.050088905
0.101967596 0.08445962 0.09422152 -0.12396327 0.12530845 -0.041506328 -0.16073778 -0.024745328
0.05824555 0.007982371 -0.10742367 0.27265212 0.0018466677 -0.10225432 -0.044844855 0.083476685
0.14608265 -0.04443805 -0.049958672 0.09696042 0.13180436 -0.079712555 0.081645586 -0.029635463
0.14475463 0.000808418 0.013233375 0.12688914 -0.13701977 -0.0033204558 -0.0065037557 -0.01836081
0.007843416 0.03393891 0.14477144 -0.14216778 0.009349433 -0.103815205 -0.06008987 -0.010445681
0.016666047 -0.065793775 0.13620049 -0.007612745 -0.01527931 -0.06532469 0.09032908 0.011969129
0.028412819 0.030324126 -0.06237253 -0.008707809 0.058771983 0.015154212 0.033287723 0.036323633
0.11608779 0.10888407 0.12834898 0.12967381 -0.19080576 -0.07254111 0.08234179 -0.105246514
-0.014631193 0.003283321 -0.06409555 -0.012175224 0.054548927 -0.114875026 -0.23781988 0.035988342
-0.121422164 -0.15906785 -0.098023675 -0.037641235 -0.016178038 0.06945513 -0.18160088 0.041425012
0.10178641 0.045391995 -0.08838381 -0.016391909 0.07691702 -0.027497832 0.07033125 0.001890017
0.098690666 0.020286724 0.11248073 0.16071455 -0.058957014 0.041332636 -0.030130085 0.051599402
0.059227493 0.017312035 -0.040508587 -0.015637133 -0.08595734 0.077391945 -0.096064664 0.031214807
-0.11903001 -0.1012747 0.0032943194 -0.04543598 0.030291421 -0.0478971 0.16310719 0.005649729
-0.040181287 0.16378118 0.032390587 0.025702983 -0.07822416 0.031442087 0.09567283 -0.12925883
0.026903598 -0.058483936 0.104485914 -0.023883289 0.12904654 -0.059516724 0.04096727 0.02464772
-0.014631649 0.12421539 0.0019427836 -0.09057363 0.068575285 0.10775445 0.08561941 0.03904281
-0.082940765 -0.104820594 0.025367407 0.043058235 -0.1310106 -0.077123925 0.018109394 -0.022061368
-0.15851106 -0.0865451 -0.10828117 -0.009611402 -0.1070853 -0.10822565 -0.12211212 0.004990717
-0.018693859 0.0060428414 -0.028965244 0.087188445 0.009256607 -0.13188323 -0.06368557 -0.1205467
0.032840803 0.08823301 0.06774085 0.0044134404 0.054139372 -0.017387345 -0.0707547 0.09038649
0.001697886 -0.05878334 -0.043810073 0.031751655 -0.015629359 -0.1250306 0.02530306 -0.04322488
0.12969606 -0.055609 0.04918492 0.042445935 0.08852006 0.20195577 0.11352603 -0.038875364
-0.08533627 -0.03894604 -0.06085923 0.038653616 0.03970122 -0.02845154 -0.007992195 -0.054012682
0.089266874 0.06548795 0.13222122 -0.018124238 -0.17115352 -0.16429338 -0.041513115 -0.09766455
00000000: 7550 f43c 122e 313e 211b d03d 2bdb db3d
00000010: b59c c43d c74a 2e3c fcde 813d 45f5 2dbd
00000020: 6b71 4ebe dfbf 813c 362a 443d e4c8 40bd
00000030: 20c6 6ebc 0a01 b33d 5e64 133e 51ec 083c
00000040: afb5 693d 4422 ca3d 4f6e e73d 5e24 7a3d
00000050: 64c8 af3c 56f8 f8bd a645 7abd 9a31 183c
00000060: 8744 59bb 459a 90bd 7906 9cbc 6afd f73c
00000070: 02f1 ffbd 2d2e cbbd dd93 4e3c ef68 583c
00000080: 822f 1e3d 954e f13d 1049 833d d08c a83d
00000090: 3be6 973d 6201 64be 5a9e 1d3d ac08 903d
000000a0: deba 98bd cc72 6c3d 65ba 7c3d b9f5 f13d
000000b0: c7ac 99bd 269b 90bd 67e2 073d 681a ce3d
000000c0: 5088 72be 1d7a c6bc 3c67 8bbc d11d d9bc
000000d0: 4072 99bd 450c 943c 5136 0e3d 062a 4dbd
000000e0: 63d4 d03d 2af9 ac3d 36f7 c03d 74e0 fdbd
000000f0: dc50 003e 8a02 2abd 7298 24be b7b6 cabc
00000100: e392 6e3d 7ec8 023c f100 dcbd 0f99 8b3e
00000110: e30b f23a b76a d1bd 3daf 37bd d3f5 aa3d
00000120: b196 153e ac04 36bd 77a1 4cbd 2f93 c63d
00000130: b9f7 063e 5640 a3bd cd35 a73d 12c6 f2bc
00000140: 8f3a 143e 03ec 533a ccd0 583c 3aef 013e
00000150: e94e 0cbe 019c 59bb 751d d5bb 6969 96bc
00000160: ac81 003c 8703 0b3d f73e 143e 6e94 11be
00000170: 5d2e 193c 119d d4bd cc20 76bd 5d24 2bbc
00000180: 3c87 883c e3be 86bd 2478 0b3e 5574 f9bb
00000190: 1256 7abc f3c8 85bd 74fe b83d 2a1a 443c
000001a0: 00c2 e83c 4d6a f83c 577a 7fbd 33ab 0ebc
000001b0: e4ba 703d 5f49 783c b558 083d 17c8 143d
000001c0: 6fbf ed3d 9cfe de3d ea6d 033e 36c9 043e
000001d0: 9662 43be 6f90 94bd d0a2 a83d 7c8b d7bd
000001e0: acb7 6fbc fc2c 573b 8744 83bd 977a 47bc
000001f0: b26e 5f3d 9943 ebbd 0e87 73be 8368 133d
00000200: 2fac f8bd afe2 22be a3c0 c8bd b22d 1abd
00000210: ce87 84bc 7e3e 8e3d 95f5 39be 46ad 293d
00000220: 6575 d03d f5ec 393d 9202 b5bd 5348 86bc
00000230: ac86 9d3d 2243 e1bc d509 903d 72ba f73a
00000240: 551e ca3d 5830 a63c 4c5c e63d 5b92 243e
00000250: e97c 71bd 694c 293d 5ed3 f6bc e559 533d
00000260: 8798 723d f8d1 8d3c 55ec 25bd 7219 80bc
00000270: 670a b0bd ab7f 9e3d 8dbd c4bd 32b6 ff3c
00000280: 02c6 f3bd 1c69 cfbd 82e5 573b 141b 3abd
00000290: b725 f83c c02f 44bd 9205 273e 5d21 b93b
000002a0: 2295 24bd 41b6 273e feab 043d 108f d23c
000002b0: fd33 a0bd 6bc9 003d 1ef0 c33d 6d5c 04be
000002c0: ef64 dc3c da8c 6fbd b6fc d53d e3a6 c3bc
000002d0: c724 043e cfc7 73bd 4ccd 273d 04ea c93c
000002e0: 95b9 6fbc a364 fe3d 00a5 fe3a ab7e b9bd
000002f0: 3371 8c3d 5dae dc3d 3b59 af3d 5beb 1f3d
00000300: d9dc a9bd 2eac d6bd 4fcf cf3c d55d 303d
00000310: a527 06be 26f3 9dbd 275a 943c 0bba b4bc
00000320: b950 22be 8f3e b1bd 85c2 ddbd 2479 1dbc
00000330: 8a4f dbbd 69a5 ddbd eb15 fabd 2b89 a33b
00000340: dd23 99bc 0703 c63b 8548 edbc db8f b23d
00000350: 06a9 173c 660c 07be 956d 82bd 30e1 f6bd
00000360: 1484 063d 82b3 b43d b7bb 8a3d 9f9e 903b
00000370: 3fc1 5d3d e86f 8ebc d7e7 90bd 8d1c b93d
00000380: 9a8b de3a cdc6 70bd 3172 33bd 060e 023d
00000390: 2409 80bc 0608 00be 5d48 cf3c 920c 31bd
000003a0: 0bcf 043e 43c6 63bd 2076 493d cadb 2d3d
000003b0: 014a b53d 7ecd 4e3e 5680 e83d c63b 1fbd
000003c0: c8c4 aebd e285 1fbd 8747 79bd 4153 1e3d
000003d0: bf9d 223d 3413 e9bc b2f1 02bc 673c 5dbd
000003e0: 8dd1 b63d 8c1e 863d 0065 073e 4879 94bc
000003f0: de42 2fbe 863c 28be a809 2abd 5a04 c8bd
