edge_grasp_net_pretrained_para/checkpoints/local_emd_model-ckpt-180.pt (torch, 136859 bytes, 12 tensors)

conv1.local_nn.0.weight f4 [32, 9]
0	0xbf5f833a	-0.8730961
1	0xbf4b6f8e	-0.79467094
2	0xbfa3024e	-1.2735078
3	0xbe0467d4	-0.12930232
4	0xbd0e736c	-0.034778044
5	0xbd51dfb7	-0.05123874
6	0x3f118858	0.5684867
7	0x3eaebcab	0.34128317
8	0x3fa2bbf8	1.2713614
9	0xbfe134f8	-1.759429
10	0x3e93f3b3	0.28896865
11	0xbf6567e2	-0.8961164
12	0xbdb55c3f	-0.08855485
13	0xbe4c76ad	-0.19967146
14	0xbe0a6505	-0.13515098
15	0x3fbf3237	1.4937199
16	0xbe7013a4	-0.23444992
17	0x3f699f91	0.91259104
18	0x1f1a5d63	3.2688016e-20
19	0x9f3edf7e	-4.0418933e-20
20	0x1f17c0d5	3.2135e-20
21	0x9e23f4e4	-8.67979e-21
22	0x1e80e9c0	1.3649204e-20
23	0x9f0222ca	-2.7557348e-20
24	0x1e8459db	1.4013207e-20
25	0x1ec4c7d3	2.0834953e-20
26	0x9d97665d	-4.007521e-21
27	0xbe97b036	-0.29626626
28	0x3fcebdcf	1.6151675
29	0x3f89211e	1.0713232
30	0xbc04d8a1	-0.008108289
31	0xbdeeaf61	-0.116545446
32	0xbdd539ec	-0.10411438
33	0x3ecebd51	0.40378812
34	0xbfb4f49f	-1.4137152
35	0xbf03f779	-0.5154949
36	0x3fc5e8d8	1.5461683
37	0xbe3dbbc8	-0.18528664
38	0xbf43ef46	-0.7653698
39	0xbcf56c4b	-0.029958865
40	0x3d1830b9	0.03715584
41	0x3def3f97	0.11682051
42	0xbfde71e8	-1.7378511
43	0xbe3a056f	-0.18166135
44	0x3eac9c3b	0.33712944
45	0xbed6b4ea	-0.419349
46	0x3f737847	0.95105404
47	0x3de827f3	0.11335745
48	0x3dd483f1	0.10376728
49	0x3d44919e	0.047990434
50	0x3e8d8ae9	0.27645043
51	0xbdc638b5	-0.09678785
52	0xbf04c284	-0.5185931
53	0xbdd6ff05	-0.1049786
54	0xbdcb3f14	-0.099241406
55	0xbe834c1c	-0.25644004
56	0x3f7002b1	0.93754107
57	0x3d3838ab	0.044975918
58	0x3d89ea77	0.06734174
59	0xbe3f3e1a	-0.18676034
60	0xbd8e24b0	-0.06940591
61	0x3e502ed8	0.2033037
62	0xbfadce8c	-1.3578658
63	0x3f29c8ac	0.66321826
64	0x3fa1decd	1.2646118
65	0xbfdcccda	-1.7250016
66	0x3e07961c	0.13240856
67	0x3e231f88	0.15929997
68	0x3e8a7ff5	0.27050748
69	0xbe8c5875	-0.27411237
70	0xbef8dbd2	-0.4860521
71	0x3f0a7a16	0.5409254
72	0xbf2d1552	-0.6761066
73	0xbf7b2400	-0.98101807
74	0xbf353896	-0.7078947
75	0x3d9b11d5	0.075717606
76	0xbdad2dc5	-0.084559955
77	0xbd84b19d	-0.064791895
78	0x3e4cb2f4	0.1999014
79	0x3f6a105f	0.9143123
80	0x3e8e7dc5	0.2783033
81	0x3ea13851	0.31488279
82	0x3f806ecd	1.0033814
83	0xbfa4d3d7	-1.2877148
84	0xbe4a9b04	-0.19785696
85	0x3e9d5232	0.30726773
86	0x3e570933	0.20999603
87	0x3e386040	0.18005466
88	0xbf4b52c9	-0.79423195
89	0x3f43a72f	0.76426977
90	0xbf9761a9	-1.1826679
91	0x3eda43f2	0.42629963
92	0x3f5052cb	0.8137633
93	0xbd9f5114	-0.07779136
94	0x3e5dee6c	0.21672982
95	0x3defd816	0.11711137
96	0x3f663dd0	0.8993807
97	0xbece1fd1	-0.4025865
98	0xbe9c901a	-0.3057869
99	0xbcb07160	-0.021538436
100	0xbf378a68	-0.71695566
101	0x3f87045c	1.0548205
102	0xbe6430c1	-0.22284223
103	0xbe3c812c	-0.1840865
104	0x3d86ae57	0.065762214
105	0x3dbda2ab	0.09259542
106	0x3fac07a4	1.3439832
107	0xbea3a938	-0.3196504
108	0xbed3f0b9	-0.41394594
109	0x3f825585	1.0182348
110	0xbec7f9eb	-0.3905786
111	0x3e30bdfd	0.17259975
112	0x3e1661da	0.14685765
113	0x3dc39120	0.09549165
114	0xbeed2c86	-0.4632303
115	0xbf950377	-1.1641682
116	0xbf0e2ee3	-0.55540293
117	0x3e56f98a	0.20993629
118	0x3f266570	0.6499853
119	0x3fc12d8c	1.5092025
120	0xbe2be6ee	-0.16787311
121	0x3d5468f9	0.051857922
122	0x3d5b38c6	0.05352094
123	0x3f27d478	0.65558577
124	0xbef245eb	-0.47318968
125	0xbfa68463	-1.3009151
126	0x3f83fbd6	1.0311229
127	0xbf28c2a9	-0.6592203
128	0x3fc4bbe4	1.536984
129	0xbe1b1e72	-0.15148333
130	0x3cdc3b61	0.026883783
131	0x3ce18644	0.027529843
132	0xbf0a7220	-0.5408039
133	0x3f1ddfd7	0.6166968
134	0xbf739ce9	-0.951613
135	0x3efd866e	0.49516624
136	0xbe0f6200	-0.14002228
137	0x3fb5afb0	1.419424
138	0x3dacb546	0.08433013
139	0xbd9fcb9b	-0.078025065
140	0xbe390524	-0.18068367
141	0xbf889beb	-1.0672582
142	0x3f45c904	0.7725985
143	0xbf588d1b	-0.8459031
144	0x3f9ab1a4	1.2085462
145	0xbf8be317	-1.0928677
146	0xbed29a46	-0.41133326
147	0x3dcbe499	0.09955711
148	0xbe808174	-0.25098765
149	0xbe11eabf	-0.14249705
150	0xbffd0d7c	-1.976974
151	0x3faefa24	1.3670087
152	0x3ec24845	0.37945762
153	0xbf32f1a5	-0.6989997
154	0xbf509690	-0.8147974
155	0xbeff8095	-0.49902788
156	0x3e0939e9	0.13400997
157	0x3e559814	0.20858794
158	0x3e167422	0.14692739
159	0x3f448fd1	0.76781946
160	0x3f57d389	0.8430715
161	0x3ec234e0	0.37930965
162	0xbec3a7c8	-0.38213944
163	0x3fe865a8	1.8156023
164	0xbef460f7	-0.47730228
165	0x3e0ce94f	0.13760875
166	0x3db65718	0.089033306
167	0xbe10f255	-0.14154942
168	0xbe0b5800	-0.13607788
169	0xbfc13a88	-1.5095987
170	0x3ec4622b	0.38356146
171	0xbf945a44	-1.1590047
172	0xbec71ab8	-0.38887572
173	0xbf8f1d50	-1.118082
174	0xbe258438	-0.16163719
175	0x3cfe2ead	0.031028116
176	0x3d3db9ff	0.046319958
177	0x3f771646	0.9651836
178	0x3e9df3d8	0.308501
179	0x3f943218	1.1577787
180	0x3fcac6c1	1.5841905
181	0x3ee1e374	0.44118845
182	0x3d4f9900	0.05068302
183	0xbe52ffe6	-0.2060543
184	0xbe494361	-0.1965461
185	0xbdfd4689	-0.12366969
186	0xbf573fbf	-0.84081644
187	0xbeb2494d	-0.3482155
188	0xbf1f4b96	-0.6222471
189	0xbeeabeb4	-0.4584862
190	0x3f540eb2	0.82834923
191	0x3f4a7d6d	0.79097635
192	0x3e9599a9	0.29218796
193	0xbd8b816d	-0.068117954
194	0xbe066d7d	-0.13127704
195	0xbed4258c	-0.41434896
196	0xbf42960c	-0.76010203
197	0xbdcdbfa9	-0.10046322
198	0x3ecc7cf0	0.3993907
199	0xbf54cbb0	-0.831233
200	0x3e589daf	0.21153902
201	0x3cebf3f3	0.028802847
202	0xbe38093b	-0.17972271
203	0x3e6d9f5c	0.23205322
204	0xbe18e4f7	-0.14931093
205	0x3ea0d855	0.31415048
206	0xbf83781b	-1.0271028
207	0xbe69d174	-0.22833806
208	0xc00aad04	-2.16681
209	0x3f20e599	0.6285034
210	0x3e13f204	0.1444779
211	0x3e339a25	0.1753927
212	0xbe24b6d7	-0.16085373
213	0x3dcf24ea	0.10114463
214	0x3f9a995c	1.2078052
215	0xbed552d8	-0.41664767
216	0x3f165c76	0.58734834
217	0x3f7768ac	0.9664409
218	0xbfbd1aba	-1.4773781
219	0xbce4bd65	-0.027922342
220	0xbdf8a0d1	-0.12140048
221	0x3e01cbcc	0.12675399
222	0x3cb351e6	0.021889638
223	0xbecc1556	-0.39860028
224	0x3e7f5688	0.24935353
225	0x3e1ddf01	0.154171
226	0x3f83596b	1.0261663
227	0x3fa44f67	1.2836732
228	0x3cd199bf	0.025586007
229	0xbd0b345e	-0.033985488
230	0xbcedd7fe	-0.029033657
231	0xbf5bb13b	-0.8581731
232	0xbf933001	-1.1499025
233	0xbf88c6ab	-1.0685629
234	0x3fe7a4f0	1.809721
235	0x3ecbc05e	0.39795202
236	0xbea83bd9	-0.3285816
237	0xbe415e92	-0.18883732
238	0x3e036732	0.12832335
239	0xbe10aa74	-0.14127523
240	0xbfa4eaf4	-1.2884202
241	0xbf8bffa8	-1.0937395
242	0x3ef8fc13	0.48629817
243	0x3f747ecd	0.9550598
244	0x3e279a86	0.1636754
245	0x3e03e3a7	0.12879811
246	0xbdeb01b7	-0.114749365
247	0x3e7783b7	0.24171339
248	0xbe226d63	-0.1586204
249	0xbf598217	-0.84964126
250	0xbf7ec3cb	-0.99517506
251	0x3e993f7f	0.29931256
252	0xbf2f4557	-0.6846518
253	0xbf387293	-0.72049826
254	0x3f4febba	0.81219065
255	0xbe00d643	-0.12581734

conv1.local_nn.0.bias f4 [32]
0	0x3e47eed8	0.19524705
1	0x3e9f7df4	0.31150782
2	0x9f4cf1a0	-4.3398548e-20
3	0x3e4cb7e0	0.19992018
4	0x3e07aa5f	0.13248585
5	0xbe6af749	-0.22945894
6	0xbde904ff	-0.11377906
7	0xbe0de229	-0.13855805
8	0x3d52f645	0.051504392
9	0xbe855bd9	-0.26046637
10	0x3b151cd3	0.0022752776
11	0xbe3cc2ec	-0.18433732
12	0xbb01a119	-0.001977986
13	0x3e53c1cf	0.20679401
14	0x3dd3d411	0.10343183
15	0x3dafa36b	0.085760914
16	0xb91d1bc2	-0.00014983027
17	0x3d955377	0.0729131
18	0x3e8870f0	0.26648664
19	0x3dce7b93	0.10082164
20	0x3e3d2150	0.18469739
21	0xbe0a5f0d	-0.13512821
22	0xbe4519f4	-0.19248182
23	0x3e88f3dc	0.2674855
24	0x3d4861f3	0.048921537
25	0x3ddf6dc9	0.10909612
26	0x3e6e91e5	0.23297842
27	0xbd6ebf1b	-0.05828772
28	0x3ded927a	0.11600204
29	0x3d1b62ee	0.037936144
30	0xbe27d2ba	-0.1638898
31	0x3e363394	0.17793113

conv1.local_nn.2.weight f4 [32, 32]
0	0x3d751fef	0.059844907
1	0x3ea70408	0.32620263
2	0x9e1666a0	-7.962156e-21
3	0x3e141a03	0.14463048
4	0xbe6d56a1	-0.23177578
5	0xbd28fe78	-0.041258305
6	0x3ca48913	0.020084893
7	0xbce76803	-0.028247839
8	0xbca2a04a	-0.019851822
9	0x3e025ea5	0.12731417
10	0x3e592a8b	0.21207635
11	0xbdcf12fc	-0.10111043
12	0xbcdacc63	-0.026708787
13	0xbc96b987	-0.018399013
14	0xbe15ba07	-0.14621745
15	0xbe30099f	-0.1719117
16	0xbe6c5a6c	-0.23081368
17	0x3e1cbc5b	0.15306227
18	0x3de4b9e8	0.11168271
19	0x3e932a08	0.28743005
20	0xbdee3b94	-0.116324574
21	0xbc7d8a24	-0.01547483
22	0xbe3514bf	-0.17683695
23	0xbe24c955	-0.16092427
24	0x3dfb32c7	0.122655444
25	0xbe09e360	-0.13465643
26	0xbdc4352f	-0.095804565
27	0xbdc9588a	-0.098313406
28	0xbd42ee32	-0.047590442
29	0x3e0ce2e7	0.13758431
30	0x3ddc97eb	0.107711636
31	0x3e0760f8	0.13220584
32	0xbc61c58b	-0.013780008
33	0xbe674149	-0.22583498
34	0x1dc8acd2	5.311825e-21
35	0xbde70007	-0.11279302
36	0x3e4f1749	0.20223726
37	0x3a5cbdf8	0.00084206415
38	0xbd5d5a70	-0.054041326
39	0xbdf2fdd5	-0.11864821
40	0x3d50ff4b	0.051024716
41	0xbd601d61	-0.054715518
42	0xbdc2238e	-0.09479438
43	0x3dbeadc4	0.09310487
44	0xbe518240	-0.20459843
45	0xbdcbc720	-0.099500895
46	0x3c3f51a5	0.01167718
47	0x3e6d5036	0.2317513
48	0x3e54ba4a	0.20774189
49	0x3dc6d93a	0.097094014
50	0xbdef766c	-0.11692509
51	0xbe26e9c8	-0.16300118
52	0xbd8a55cd	-0.067546465
53	0x3d26640e	0.040622763
54	0x3e1e8b5e	0.15482852
55	0x3e66320c	0.22480029
56	0x3dd6bbf0	0.10485065
57	0x3e165a17	0.14682804
58	0x3da35d78	0.07976812
59	0xbde4cbba	-0.1117167
60	0x3da4db9c	0.080497
61	0xbe0fff17	-0.14062153
62	0x3e2594c6	0.16170034
63	0xbe042919	-0.12906303
64	0x202d5b3a	1.4683854e-19
65	0x20a58834	2.804222e-19
66	0x9cd78d15	-1.4263975e-21
67	0x9f36c91d	-3.8706356e-20
68	0xa0740d2d	-2.0671963e-19
69	0x1ddcc00b	5.8432083e-21
70	0x1f2300da	3.4517297e-20
71	0x9f4c0efe	-4.321108e-20
72	0xa0bec56d	-3.2317897e-19
73	0x9e296a74	-8.9687995e-21
74	0x1da8312d	4.4520076e-21
75	0x1c9ea0dd	1.0497145e-21
76	0x9fc814d5	-8.473776e-20
77	0x9fa39b1d	-6.92898e-20
78	0x1f13b4d6	3.1278045e-20
79	0x202926e9	1.4327731e-19
80	0xa026d3c6	-1.4130817e-19
81	0x2080a13e	2.1790745e-19
82	0x1ef56cdf	2.5985412e-20
83	0x1e30ccd3	9.359719e-21
84	0x9f3aad20	-3.9530238e-20
85	0x20516319	1.7735777e-19
86	0x9e95a0b0	-1.5842447e-20
87	0x2015e171	1.2695383e-19
88	0x9ec79149	-2.1130033e-20
89	0x9e82a454	-1.383225e-20
90	0xa09b1923	-2.6274655e-19
91	0x1eeffc98	2.540958e-20
92	0xa0818162	-2.1939068e-19
93	0xa0ac422a	-2.9181717e-19
94	0x9e7d90ba	-1.3423637e-20
95	0x9edaf5ff	-2.318339e-20
96	0x3ea0d76d	0.31414357
97	0x3e31c262	0.17359307
98	0x1e9e6507	1.6770685e-20
99	0xbe77afd4	-0.24188167
100	0x3e4be1ee	0.19910404
101	0x3b7bb8cc	0.0038409708
102	0xbcec615b	-0.028855016
103	0xbdca2ed0	-0.0987221
104	0x3e10e531	0.1414993
105	0x3d118cb2	0.035534568
106	0xbe117159	-0.14203395
107	0x3d0c7897	0.03429469
108	0xbe24cac2	-0.16092971
109	0xbdfba652	-0.122875825
110	0xbe0905f9	-0.13381185
111	0xbdd6e3f9	-0.10492701
112	0x3dba9d7a	0.091120675
113	0x3e1ae514	0.15126449
114	0xbd31450f	-0.04327875
115	0x3e2b633a	0.1673707
116	0xbdb92f5d	-0.09042237
117	0x3d986687	0.074414305
118	0x3c886c29	0.016653137
119	0xbc310682	-0.010804774
120	0xbcef2000	-0.029190063
121	0xbe9503c9	-0.2910445
122	0xbdab9312	-0.08377661
123	0x3d8606f6	0.065442964
124	0x3c194785	0.0093554305
125	0x3d0cbb84	0.034358516
126	0xbc8d6e1c	-0.017264418
127	0x3e1a8430	0.15089488
128	0x9eb7b99d	-1.9452647e-20
129	0x9e08bb58	-7.238522e-21
130	0x1ccd0940	1.3568153e-21
131	0x1d025065	1.724692e-21
132	0x1daa727e	4.5117007e-21
133	0x1eae266b	1.8438856e-20
134	0x9e9f5868	-1.6871344e-20
135	0x1c1fec5d	5.291418e-22
136	0x1e9def51	1.6722e-20
137	0x9e0bd173	-7.401912e-21
138	0x9d818cbf	-3.4291544e-21
139	0x9bf7e0da	-4.100803e-22
140	0x1e8c2903	1.4840039e-20
141	0x9ead292a	-1.8334113e-20
142	0x9e905aa0	-1.5284075e-20
143	0x1e1c6d6e	8.281201e-21
144	0x1db7a033	4.860534e-21
145	0x1e6b0c3e	1.2443328e-20
146	0x1cc99599	1.3339734e-21
147	0x9e0032bf	-6.786758e-21
148	0x9cd239f7	-1.3911618e-21
149	0x9ea19d7e	-1.7111675e-20
150	0x1e9d8508	1.6678042e-20
151	0x1dc2d25b	5.1568875e-21
152	0x9e16196d	-7.946192e-21
153	0x9ea1921a	-1.7106964e-20
154	0x9dde8b70	-5.8907086e-21
155	0x1d33411c	2.3724114e-21
156	0x9e87067e	-1.4296366e-20
157	0x1e66b1e3	1.2212885e-20
158	0x9e0ecb91	-7.559514e-21
159	0x9e70f3e4	-1.275593e-20
160	0x20709c53	2.0380514e-19
161	0xa065a92d	-1.945303e-19
162	0x1e063eb6	7.106869e-21
163	0xa11b9510	-5.2713325e-19
164	0xa15dcdae	-7.5149927e-19
165	0xa042998d	-1.6483245e-19
166	0x1fbc3a7e	7.9717864e-20
167	0x20045998	1.1210479e-19
168	0xa0fbe0c4	-4.2669791e-19
169	0x1c8282ea	8.636519e-22
170	0xa0688330	-1.9694571e-19
171	0x1e8f2719	1.5156884e-20
172	0xa1534f98	-7.159492e-19
173	0xa0a61430	-2.8134853e-19
174	0x9fed58eb	-1.00520507e-19
175	0xa0add30f	-2.9447007e-19
176	0x1dd80469	5.7179284e-21
177	0x9f880cbc	-5.761931e-20
178	0x9e2b8d31	-9.081862e-21
179	0x9f1bb52c	-3.297239e-20
180	0x1f0a0b6e	2.923209e-20
181	0xa085de54	-2.26782e-19
182	0x1e518da7	1.1093661e-20
183	0xa114dccd	-5.043658e-19
184	0xa083aa1b	-2.230483e-19
185	0x1facb64e	7.314643e-20
186	0xa06846f3	-1.967464e-19
187	0x20282db6	1.4245278e-19
188	0xa04ec38c	-1.751358e-19
189	0xa07d5d3e	-2.1460785e-19
190	0x1e7d1b18	1.3399311e-20
191	0xa08bc793	-2.3679583e-19
192	0x3e82550c	0.2545551
193	0x3e3cc90a	0.18436065
194	0x1e91a50b	1.5420732e-20
195	0xbdc0c19c	-0.09411928
196	0xbe249db7	-0.16075788
197	0x3c3cbe4a	0.011519978
198	0xbe08fbd5	-0.13377316
199	0x3dbeb171	0.09311188
200	0x3e05a97a	0.13052931
201	0x3d085e4b	0.03329305
202	0x3de26258	0.11053914
203	0xbde7c1a0	-0.11316228
204	0xbe032d8d	-0.12810345
205	0xbdd17ee9	-0.10229284
206	0xbdb71e47	-0.08941322
207	0xbd838711	-0.06422246
208	0xbc346cf5	-0.0110123055
209	0x3e069037	0.13140951
210	0xbde4179d	-0.111373164
211	0x3e71d29f	0.23615502
212	0xbdf024e6	-0.11725788
213	0xbdbee931	-0.093218215
214	0x3ded8d6a	0.11599238
215	0x3de6b547	0.11265045
216	0x3d20a0aa	0.03921572
217	0xbe91dda7	-0.2848942
218	0xbdf6ca3c	-0.12050292
219	0x3df5b1dc	0.119968146
220	0x3e3ac07e	0.18237492
221	0x3e37dcda	0.17955342
222	0xbd66dd94	-0.056363657
223	0x3e1a4596	0.15065607
224	0x3cc02b29	0.02345808
225	0x3e1f5142	0.15558341
226	0x9e923b11	-1.548278e-20
227	0x3d80b7b2	0.06285037
228	0xbe63ba28	-0.22238982
229	0x3d77c8d6	0.060494266
230	0x3e262a49	0.16227068
231	0xbe36f74e	-0.17867777
232	0xbc4f321e	-0.012646226
233	0xbe15be79	-0.14623441
234	0x3e57a8cd	0.21060486
235	0x3e0eca94	0.13944465
236	0x3e16f9cb	0.14743726
237	0x3dec86a4	0.11549118
238	0xbcb3044e	-0.021852639
239	0x3ddfd0b3	0.10928478
240	0xbe1bb5dd	-0.15206094
241	0x3e121129	0.14264359
242	0xbe00ecc3	-0.12590317
243	0x3cf3dce7	0.02976842
244	0xbd9d6567	-0.076853566
245	0xbd5764c1	-0.05258632
246	0x3dc8fdb8	0.09814018
247	0x3e258de8	0.16167414
248	0xbe4b99e6	-0.19882926
249	0x3d7dd417	0.061969843
250	0xbe928783	-0.28619012
251	0xbd0a0c43	-0.0337031
252	0x3e5646f8	0.2092551
253	0xbefa209c	-0.48853004
254	0x3e3d24cd	0.1847107
255	0x3dd12987	0.10212999

conv1.local_nn.2.bias f4 [32]
0	0x3d0f66d6	0.03501018
1	0x3dbfa2b2	0.093572035
2	0xa0637a15	-1.9268041e-19
3	0x3d82360b	0.06357964
4	0x9e99b0a8	-1.6272568e-20
5	0xa1c49363	-1.332049e-18
6	0x3cac3959	0.02102344
7	0x3dabbb06	0.08385281
8	0x3d82d588	0.06388384
9	0x3e5c930c	0.21540469
10	0x3d1a172c	0.037619755
11	0xbd71ff05	-0.059081096
12	0x3c3f7894	0.011686463
13	0x3b7fd19d	0.0039034851
14	0x3d4e268b	0.050329726
15	0xa2259b5a	-2.2443912e-18
16	0xbb367ec7	-0.0027846561
17	0x3e08da65	0.13364561
18	0x3ccf6627	0.025317265
19	0xbcd5bb83	-0.02609039
20	0x9e32a727	-9.457808e-21
21	0x3b804141	0.003914029
22	0x3dd34238	0.103153646
23	0x3db49ac3	0.08818581
24	0x3e3b635a	0.18299618
25	0x3ddc9f92	0.10772623
26	0x3aecabd8	0.0018056585
27	0xbd66042d	-0.056156326
28	0x3caa84d5	0.020815292
29	0x3c4147a0	0.011796862
30	0x9e7e46d2	-1.3461293e-20
31	0xa0e08608	-3.803577e-19

conv2.local_nn.0.weight f4 [64, 35]
0	0xbdb5d9c7	-0.08879428
1	0x3e2e26d7	0.17007004
2	0x9e983b21	-1.6118081e-20
3	0xbcaf4026	-0.021392893
4	0x1cd88568	1.4328166e-21
5	0xa000d3d7	-1.0912114e-19
6	0xbe1a73d4	-0.15083247
7	0x3ebbfbac	0.36715448
8	0x3d208b0a	0.039195098
9	0x3dec1f80	0.11529446
10	0x3e35945a	0.17732373
11	0xbe815f71	-0.2526813
12	0xbe520aed	-0.2051198
13	0x3e4b65ef	0.19863103
14	0xbda2375e	-0.07920717
15	0x9e936331	-1.5605255e-20
16	0xbe174f13	-0.14776258
17	0xbdcd5835	-0.1002659
18	0xbe0c46e5	-0.13698919
19	0xbc27dc0d	-0.010245335
20	0x1bbeb79a	3.1551513e-22
21	0x3da93ec9	0.082639284
22	0xba928e58	-0.0011181338
23	0x3df6c0e2	0.12048508
24	0x3e24dbf3	0.16099529
25	0x3dca09f9	0.098651834
26	0xbda05054	-0.078278214
27	0xbb881ec3	-0.0041540577
28	0xbcc438db	-0.023952892
29	0xbd7cd07e	-0.06172227
30	0x1ea68db5	1.7634542e-20
31	0xa03cd504	-1.59947e-19
32	0x3f286b8f	0.6578912
33	0x3f8c9ae0	1.0984764
34	0xbf571598	-0.84017324
35	0x1ff1a043	1.023326e-19
36	0x9f1fc3b1	-3.3831432e-20
37	0x9d90affa	-3.829844e-21
38	0x1fff5f58	1.08154434e-19
39	0x9dd927d5	-5.7480607e-21
40	0x9ca1114c	-1.0658557e-21
41	0x1f3807ad	3.8969865e-20
42	0x1fabc20e	7.2742354e-20
43	0x9fb9ee07	-7.874433e-20
44	0x9f63bfa1	-4.822763e-20
45	0x1f147e7d	3.1444848e-20
46	0x1f3a61d8	3.9467967e-20
47	0x9ef9312e	-2.638424e-20
48	0x20050b81	1.1269345e-19
49	0x20131b85	1.246049e-19
50	0x99f99088	-2.5804372e-23
51	0x2006c4d4	1.1415366e-19
52	0x9f4e1c28	-4.3645487e-20
53	0x1feee358	1.0117303e-19
54	0x9db10b42	-4.686315e-21
55	0x1e6f3271	1.2662986e-20
56	0x1fb240f9	7.549342e-20
57	0xa01fb816	-1.3528733e-19
58	0x1fbfe25e	8.126614e-20
59	0x9f511ada	-4.4279683e-20
60	0xa01d540c	-1.3326226e-19
61	0x1f219e04	3.4223784e-20
62	0x1feb88de	9.97528e-20
63	0x1fbd890d	8.0271345e-20
64	0x9fbbd3e9	-7.9548157e-20
65	0x9e78c4bb	-1.31696936e-20
66	0x1bc66cd2	3.2826676e-22
67	0x9e82869d	-1.381996e-20
68	0x9ea03776	-1.6963597e-20
69	0x1dd9d997	5.7664404e-21
70	0xbe252af6	-0.1612967
71	0x3de6ddd0	0.11272776
72	0xa0558eae	-1.808901e-19
73	0xbe5108c2	-0.20413497
74	0x1e7e5426	1.34640495e-20
75	0x2075bb82	2.0814348e-19
76	0xbe852d82	-0.26011282
77	0xbe44fb3a	-0.1923646
78	0xbde5464d	-0.111950494
79	0xbe897b38	-0.2685182
80	0xbea466f3	-0.32109794
81	0xbc883b0b	-0.016629716
82	0x3e262ad1	0.1622727
83	0x3d8facc4	0.07015374
84	0xbd868477	-0.065682344
85	0x1e96014f	1.5882409e-20
86	0x3d001bd4	0.03127654
87	0x3c14d425	0.009083782
88	0xbe392e0b	-0.1808397
89	0xbd3917ea	-0.04518882
90	0x9e2c919b	-9.135715e-21
91	0xbd43c229	-0.047792587
92	0xbe527917	-0.20554005
93	0x3ddbf8a9	0.107407875
94	0x3d8dc2b1	0.069219
95	0xbdba5c42	-0.09099628
96	0x3da87bd5	0.08226744
97	0x3b6ca4e4	0.0036109025
98	0xbd6f0942	-0.05835844
99	0x3d5683e7	0.052371886
100	0x1e0b82b7	7.38563e-21
101	0xa0325cd4	-1.5107901e-19
102	0xbebb59a9	-0.36591843
103	0xbe899240	-0.26869392
104	0xbe97d11d	-0.29651728
105	0x3dc21aba	0.09477754
106	0xbe369873	-0.17831592
107	0x1fa7a21e	7.099545e-20
108	0xbe52ba24	-0.2057882
109	0x1e422e87	1.0279896e-20
110	0x1d797b3a	3.3018582e-21
111	0xbb4b22cd	-0.0030996085
112	0x3e2e240a	0.17005935
113	0xbcfd2bf0	-0.03090474
114	0x3e0716a8	0.13192236
115	0xbc6723bf	-0.014107644
116	0x3da9eeca	0.082974985
117	0xbe71a80c	-0.23599261
118	0x3e5da4fd	0.2164497
119	0x3d91f087	0.07125955
120	0x1d10ebb3	1.9180095e-21
121	0xbd538336	-0.051638804
122	0xbe89bf5b	-0.26903805
123	0x3cc26950	0.023731858
124	0x3c239af6	0.009985676
125	0x1e4aa41c	1.0727728e-20
126	0x3dd56241	0.10419131
127	0x3db08b18	0.0862028
128	0x3e044d1b	0.12920038
129	0x3ad82dba	0.001649312
130	0x3e1e68c1	0.15469648
131	0x3d09aa4b	0.03360967
132	0x3c622e1b	0.013804938
133	0xbe8ca58c	-0.27470052
134	0xba739389	-0.0009291699
135	0x1e3c0409	9.9534716e-21
136	0x1fa90645	7.1584656e-20
137	0x3f805900	1.0027161
138	0x3f046dc1	0.5172997
139	0xbf0d5127	-0.55201954
140	0xbd826ec5	-0.06368784
141	0x3d8878c1	0.06663657
142	0x9ed2bfbd	-2.2313916e-20
143	0xbdf18b96	-0.11794202
144	0x9db1bc50	-4.704622e-21
145	0xa02090ba	-1.3600413e-19
146	0xbdc41466	-0.09574203
147	0xbdb74b5c	-0.089499205
148	0xbe60a61a	-0.21938363
149	0xbe358d82	-0.17729762
150	0xbdb4b19a	-0.08822937
151	0xbd65da1a	-0.0561162
152	0xbe0e45b7	-0.13893782
153	0xbdabbc0e	-0.08385478
154	0xbe27b4f9	-0.1637763
155	0x1e90c230	1.5326907e-20
156	0xbe3b7b01	-0.18308641
157	0xbcda310a	-0.026634712
158	0x3daf0c69	0.08547289
159	0xbe8135f0	-0.25236464
160	0x1e23590a	8.647561e-21
161	0xbe049956	-0.12949118
162	0xbdc46a0f	-0.095905416
163	0x3c9e238f	0.019304065
164	0xbc02fb17	-0.007994435
165	0xbe1d36fa	-0.15353003
166	0xbdb553d1	-0.08853877
167	0xbcc48921	-0.02399117
168	0xbe02e203	-0.12781529
169	0xbe173c94	-0.14769202
170	0x1b3e0b61	1.5720108e-22
171	0x9fcdd614	-8.717504e-20
172	0xbe128c3d	-0.14311309
173	0x3d588773	0.05286355
174	0xbea2d34e	-0.31801838
175	0x9b5863bb	-1.7899326e-22
176	0x1e940482	1.5671974e-20
177	0x9dd6926d	-5.679673e-21
178	0x1e0b9f6e	7.391568e-21
179	0x9c8a56cc	-9.15451e-22
180	0x9e8161ab	-1.36988e-20
181	0x1d208a6b	2.1247384e-21
182	0x1e0e57ac	7.5355475e-21
183	0x9cb93582	-1.2256105e-21
184	0x1e46ef13	1.0531472e-20
185	0x1e14fc37	7.8872116e-21
186	0x1d50fab9	2.7658191e-21
187	0x9e750a8e	-1.2972375e-20
188	0x9e9497e7	-1.5732935e-20
189	0x9dce6584	-5.463271e-21
190	0x9e28c49b	-8.934503e-21
191	0x9db6d111	-4.839117e-21
192	0x1dc57c3b	5.2273917e-21
193	0x1e97f80d	1.6090338e-20
194	0x9e5baba4	-1.1629258e-20
195	0x1dfc5bd6	6.67988e-21
196	0x9e2cb2ee	-9.142606e-21
197	0x9e655f0e	-1.2142816e-20
198	0x9e6b5a3d	-1.2459457e-20
199	0x1e589f6f	1.1467915e-20
200	0x9cf88e03	-1.6447973e-21
201	0x1c5c6e6f	7.2934626e-22
202	0x1e688143	1.23087084e-20
203	0x1d3e4586	2.5182233e-21
204	0x1df55b1d	6.494517e-21
205	0x1e92da81	1.5548722e-20
206	0x1ea43ef4	1.7390212e-20
207	0x9dcdb1ea	-5.4447007e-21
208	0x1d9501b6	3.944174e-21
209	0x1e4cd5f5	1.0843915e-20
210	0x2139d671	6.296425e-19
211	0xa2d4805b	-5.7598617e-18
212	0x9e8f8d52	-1.5199163e-20
213	0xa18d83a3	-9.589376e-19
214	0x1e3ecd46	1.0100966e-20
215	0x1df765af	6.5485494e-21
216	0x21cf2f9e	1.403947e-18
217	0xa294334c	-4.0169793e-18
218	0x209b0d71	2.6266916e-19
219	0xa2806c5e	-3.4809208e-18
220	0xa12e3b1c	-5.9031724e-19
221	0xa2402a14	-2.6043128e-18
222	0x1f9a07d8	6.5234513e-20
223	0xa2a67142	-4.5114307e-18
224	0x21a92b11	1.1463285e-18
225	0x1dc0de38	5.1051746e-21
226	0xa2edb3ce	-6.4429354e-18
227	0xa224ae70	-2.231849e-18
228	0xa1099685	-4.6616616e-19
229	0xa2221d45	-2.197059e-18
230	0x9de52a2f	-6.0659412e-21
231	0xa26b1812	-3.1861182e-18
232	0xa20bbcd9	-1.8937988e-18
233	0xa0852434	-2.2555034e-19
234	0xa21fec3a	-2.1673575e-18
235	0xa306ab63	-7.300447e-18
236	0x22038899	1.7826125e-18
237	0xa34751c7	-1.0805129e-17
238	0x211a9fd5	5.2388765e-19
239	0xa2f69c42	-6.684388e-18
240	0x1e3ac6f5	9.887901e-21
241	0x203a317b	1.5771185e-19
242	0x1fd53b60	9.0307237e-20
243	0x208b786b	2.3627202e-19
244	0xa04adc22	-1.7182901e-19
245	0x3e1a50aa	0.15069833
246	0xbae9491c	-0.0017798278
247	0xa03349da	-1.5186325e-19
248	0xbd0b75ae	-0.034047775
249	0x9e808824	-1.3608834e-20
250	0x1fcd69fd	8.699622e-20
251	0xbc6e8c43	-0.014559808
252	0x3cf32c86	0.029684316
253	0x3d820f83	0.06350615
254	0x3e110686	0.14162645
255	0xbc975a78	-0.018475756

conv2.local_nn.0.bias f4 [64]
0	0x3ddb2d99	0.107020564
1	0xa08807aa	-2.3044368e-19
2	0x3d8d7cd0	0.06908572
3	0x3d8118f6	0.06303589
4	0x3e55ca4d	0.20877953
5	0x9e9fa9ad	-1.6904956e-20
6	0xa40ba383	-3.027932e-17
7	0xbdbe52d8	-0.09293145
8	0x3d8de9a3	0.06929328
9	0x9fff2650	-1.08060083e-19
10	0x9e509424	-1.1042063e-20
11	0xab831088	-9.312698e-13
12	0x9e1ec127	-8.404393e-21
13	0xb13da6e5	-2.7597988e-09
14	0xbd87e8c3	-0.06636193
15	0xbd6c8582	-0.05774451
16	0x9ebfa9e4	-2.0293177e-20
17	0x3d8cd202	0.06875993
18	0x1c9c5ea9	1.0347683e-21
19	0xa16cc749	-8.022366e-19
20	0x3e253c5e	0.1613631
21	0x3e27f2fe	0.16401288
22	0x9f036daf	-2.7831057e-20
23	0x3e250f24	0.16119057
24	0x9e46a1e2	-1.0515509e-20
25	0xbd526524	-0.051365986
26	0xbde60dd3	-0.112331055
27	0xbd3e26aa	-0.04642359
28	0x9eaca99d	-1.8281359e-20
29	0x3e27e6f6	0.16396698
30	0xbde0f2c5	-0.109838046
31	0xa3caf39d	-2.2004058e-17
32	0x3d3be25f	0.04587018
33	0x3db66995	0.08906857
34	0xa0a368ec	-2.7682706e-19
35	0xa07c78e0	-2.1385224e-19
36	0x3e489000	0.19586182
37	0xbd5bf2d8	-0.05369839
38	0xa23c9f28	-2.5563008e-18
39	0x3e55293b	0.2081651
40	0x3c1093d2	0.008824306
41	0x3e11086b	0.14163367
42	0x3e219855	0.15780766
43	0xa089f001	-2.3367524e-19
44	0xabbb10d8	-1.3291824e-12
45	0xbd8b3fc1	-0.067992695
46	0xa8e8825f	-2.5813714e-14
47	0x9e8c2974	-1.4840221e-20
48	0x3d935dd7	0.07195633
49	0xbd8863b6	-0.06659643
50	0x9f684888	-4.9187907e-20
51	0xbda4d042	-0.080475345
52	0x3cd54828	0.026035383
53	0x3df743e7	0.12073498
54	0x3dd108aa	0.10206731
55	0xa07c59c0	-2.1374926e-19
56	0x9e371021	-9.691275e-21
57	0x3ca58583	0.020205265
58	0x3de8444d	0.11341152
59	0x9ea58d31	-1.752845e-20
60	0x3db75444	0.08951619
61	0xbc2e3d11	-0.010634677
62	0xa063484e	-1.9251572e-19
63	0x9f2b5862	-3.6283767e-20

conv2.local_nn.2.weight f4 [64, 64]
0	0xbd504643	-0.050848257
1	0x1ec20bdf	2.0545459e-20
2	0xbe4f76b9	-0.20260133
3	0xbbe79347	-0.0070671174
4	0xbe2f316c	-0.17108697
5	0x1e500f4e	1.1014593e-20
6	0x20d16f49	3.547962e-19
7	0xbdcaf5b7	-0.09910148
8	0x3d34aa6a	0.044107832
9	0x9d4f7ef7	-2.7461861e-21
10	0x1e373c87	9.700456e-21
11	0x29238b42	3.6314058e-14
12	0x1dab4c26	4.534206e-21
13	0xb0debc64	-1.620617e-09
14	0x3d472763	0.048621546
15	0xbd0a6325	-0.033785958
16	0x1e1e6e25	8.387228e-21
17	0x3d46604c	0.04843168
18	0x1e57853b	1.1409557e-20
19	0x1e6391fd	1.204747e-20
20	0xbb4a7239	-0.0030890836
21	0xbe3db8ed	-0.18527575
22	0x1e148dc0	7.864368e-21
23	0xbe103c32	-0.14085463
24	0x1dd6d661	5.686699e-21
25	0xbc988e36	-0.018622499
26	0xbe344edb	-0.17608206
27	0xbda92d0c	-0.08260545
28	0x1e1e1208	8.368179e-21
29	0xbdbfa44c	-0.09357509
30	0xbd336247	-0.043794896
31	0xa231bd8a	-2.4088314e-18
32	0xbe53c665	-0.2068115
33	0xbe70c5c0	-0.23512936
34	0x1f370653	3.875699e-20
35	0x9fb74b51	-7.7628115e-20
36	0x3d84739d	0.06467364
37	0x3bd99252	0.006639757
38	0xa1fe0802	-1.7213829e-18
39	0xbdcebcba	-0.100945905
40	0xbda3c7f9	-0.07997126
41	0xbe439944	-0.19101435
42	0xbdcc850b	-0.099863134
43	0x9faffd05	-7.453397e-20
44	0x2941f115	4.3063714e-14
45	0x3ddd5d7d	0.10808847
46	0xa8eb5725	-2.6128034e-14
47	0x1d714db4	3.1936256e-21
48	0xbe716a93	-0.23575811
49	0x3d0d22f2	0.034457155
50	0x1e5039a3	1.1023347e-20
51	0x3afd31b8	0.0019317186
52	0xbda06889	-0.078324385
53	0x3d8b5fb1	0.06805361
54	0xbd9767d2	-0.07392849
55	0x1fce9b01	8.7500826e-20
56	0x1d09228c	1.814966e-21
57	0x3d36d66b	0.04463808
58	0xbb8e12fd	-0.0043357597
59	0x9e0bd4d5	-7.402611e-21
60	0xbe0195db	-0.12654822
61	0xbda9095f	-0.082537405
62	0x9e39693a	-9.815579e-21
63	0x9e75abdf	-1.3005734e-20
64	0x1d9009ea	3.8126734e-21
65	0x1d0c917d	1.8604061e-21
66	0x1e49fd16	1.0693188e-20
67	0x9f5a63cc	-4.6245846e-20
68	0x1cbf8a9a	1.2675147e-21
69	0x1e48c5f4	1.06288476e-20
70	0x9e22f96d	-8.627789e-21
71	0x1e480081	1.0588016e-20
72	0x9f5d9556	-4.6922098e-20
73	0x9e21b29f	-8.560207e-21
74	0x1e5988fb	1.1516211e-20
75	0x9f255202	-3.5007944e-20
76	0x9e6aa6ff	-1.2422391e-20
77	0x9dda98cc	-5.7862108e-21
78	0x9f919f39	-6.16733e-20
79	0x1f56a618	4.5453652e-20
80	0x9e4c1ce2	-1.0805643e-20
81	0x1e2d38df	9.1703044e-21
82	0x1dd6d63b	5.6866837e-21
83	0x9e28da4e	-8.93899e-21
84	0x1e4027ee	1.0172653e-20
85	0x9e3b25ff	-9.907555e-21
86	0x1d063f96	1.7767625e-21
87	0x9b63a1d1	-1.8829286e-22
88	0x9e0dc17c	-7.5044895e-21
89	0x1e9adf9e	1.639787e-20
90	0x9de8ea40	-6.1652097e-21
91	0x1e2a78bb	9.0246915e-21
92	0x1e65bdf3	1.216244e-20
93	0x1e5c9750	1.1677994e-20
94	0x1df48dc4	6.4732844e-21
95	0x9e3c0d76	-9.955421e-21
96	0x9ef89f50	-2.6323911e-20
97	0x1e3dad3a	1.0041399e-20
98	0x9d0e5a15	-1.8840115e-21
99	0x9d07b82c	-1.7962316e-21
100	0x9f89de23	-5.838925e-20
101	0x9df5fbfb	-6.51115e-21
102	0x1e2d52be	9.1756544e-21
103	0x1ead364a	1.8339541e-20
104	0x1de15213	5.9641867e-21
105	0x9d769bda	-3.2638402e-21
106	0x9ed9b492	-2.3050451e-20
107	0x9e5d65eb	-1.1720719e-20
108	0x9de6c80d	-6.108734e-21
109	0x1f741f60	5.1694963e-20
110	0x9e677508	-1.225324e-20
111	0x1de8a121	6.1576492e-21
112	0x1e497cdf	1.0666674e-20
113	0x9f3adda8	-3.9570382e-20
114	0x9dd102ed	-5.5324865e-21
115	0x9f1e571b	-3.3529853e-20
116	0x1e68c63e	1.2322973e-20
117	0x9f415696	-4.0940962e-20
118	0x9ebad411	-1.9781225e-20
119	0x1e75c823	1.3011579e-20
120	0x1e592e07	1.14974026e-20
121	0x9f2e648d	-3.6929107e-20
122	0x9ec3d2fb	-2.0733688e-20
123	0x1de1ae86	5.9737457e-21
124	0x1e5f9c2e	1.1837819e-20
125	0x9e840c85	-1.3981222e-20
126	0x9e732307	-1.2871556e-20
127	0x1cd29113	1.3934135e-21
128	0x9d993628	-4.055476e-21
129	0x1e4269e6	1.0292174e-20
130	0x9ca12474	-1.0663509e-21
131	0x1e1710dc	7.99736e-21
132	0x1cbc8de8	1.2477478e-21
133	0x1dae8987	4.6199616e-21
134	0x9e6a05b9	-1.238904e-20
135	0x1e4cfcf5	1.085198e-20
136	0x9c1d5bff	-5.2065845e-22
137	0x1ddc46d8	5.8306766e-21
138	0x1e40a304	1.0198106e-20
139	0x9da1761e	-4.2738475e-21
140	0x9d895b14	-3.635777e-21
141	0x1d8c84ab	3.7194867e-21
142	0x9e711736	-1.2763234e-20
143	0x9e323ecc	-9.436228e-21
144	0x9de6ee09	-6.1126616e-21
145	0x9d884da2	-3.607917e-21
146	0x9e6cb819	-1.25318065e-20
147	0x9dbe05ec	-5.0298704e-21
148	0x9e46105b	-1.0485415e-20
149	0x1e309e57	9.350106e-21
150	0x1db61ac6	4.820268e-21
151	0x9e53a6f0	-1.1204769e-20
152	0x1e040f1e	6.991148e-21
153	0x1e6274b3	1.1988473e-20
154	0x9afbc3aa	-1.0412728e-22
155	0x9e12f674	-7.780141e-21
156	0x1d8e9bbf	3.7748125e-21
157	0x1e523a26	1.1129332e-20
158	0x9e764c30	-1.3038887e-20
159	0x1c30fffa	5.8564357e-22
160	0x9d9599ff	-3.95992e-21
161	0x9e2c3a82	-9.117703e-21
162	0x9d7e0bac	-3.3622654e-21
163	0x1caa68c4	1.1276738e-21
164	0x9c28d3a8	-5.5860096e-22
165	0x9d166bbc	-1.9908032e-21
166	0x9e2aeac4	-9.0482735e-21
167	0x1e53574b	1.1188299e-20
168	0x9cd324a2	-1.3972278e-21
169	0x9d9638ca	-3.9763388e-21
170	0x1c8d531a	9.352079e-22
171	0x9de5ed8f	-6.0861425e-21
172	0x9e4ab8da	-1.0732017e-20
173	0x9e743587	-1.2928322e-20
174	0x1e66ffa0	1.2228961e-20
175	0x1e42e84b	1.03183115e-20
176	0x1e245ed6	8.701699e-21
177	0x9e23bd82	-8.6683374e-21
178	0x9ba79ca2	-2.7729054e-22
179	0x9e321396	-9.427292e-21
180	0x9d501c64	-2.7543248e-21
181	0x1e550408	1.127696e-20
182	0x1e042c98	6.9972436e-21
183	0x9e1e2ab9	-8.373285e-21
184	0x9c0ec888	-4.724304e-22
185	0x9de689f8	-6.102315e-21
186	0x9e4cc459	-1.0840274e-20
187	0x9d8427ac	-3.498113e-21
188	0x1e28dfb4	8.940107e-21
189	0x1d975d5f	4.006591e-21
190	0x1e578ee0	1.1411551e-20
191	0x1cf8d9f1	1.64676e-21
192	0xbc19957f	-0.009374022
193	0x9f44533b	-4.157346e-20
194	0x3e0eed1f	0.13957642
195	0xbe64b36a	-0.22334066
196	0xbe85cec3	-0.2613431
197	0x1cfaf216	1.660619e-21
198	0x21a50c30	1.1184061e-18
199	0x3db052fe	0.086095795
200	0xbdd805f0	-0.105480075
201	0x9e314cd4	-9.38619e-21
202	0x9d6e4f47	-3.1540023e-21
203	0x24a50155	7.15596e-17
204	0x1e2d4ea1	9.174804e-21
205	0x301f0369	5.784871e-10
206	0x3e1d90d4	0.15387279
207	0x3d83700b	0.06417855
208	0x1d825bdb	3.450569e-21
209	0xbd875884	-0.0660868
210	0x1e6dd90f	1.2591562e-20
211	0x9d03c7b0	-1.7440942e-21
212	0xbd652884	-0.05594684
213	0xbebb9f04	-0.36644757
214	0x1cd59144	1.4132708e-21
215	0x3cedf168	0.029045776
216	0x1d22072f	2.1444235e-21
217	0x3d992ec1	0.07479621
218	0xbc49ce69	-0.012317278
219	0x3dd21a2b	0.102588974
220	0x1d08b630	1.8093639e-21
221	0xbe7991a1	-0.2437196
222	0x3e19405b	0.14965956
223	0x9e9a469c	-1.6334588e-20
224	0x3e00254f	0.12514232
225	0xbcd5a90b	-0.026081583
226	0x9ff71494	-1.0464261e-19
227	0x1f46df1b	4.211268e-20
228	0xbd84c59d	-0.06483004
229	0xbe267c4a	-0.1625835
230	0xa18bb1c2	-9.466058e-19
231	0xbe382550	-0.17982984
232	0xbce81af5	-0.028333167
233	0x3c9f0ff5	0.019416789
234	0x3d8b2ed1	0.06796039
235	0x1fb217b5	7.542515e-20
236	0xaabc11a9	-3.3407763e-13
237	0xbdc91396	-0.09818189
238	0x2544ece5	1.7080553e-16
239	0x9e51c2c6	-1.1104646e-20
240	0xbe953fca	-0.2915023
241	0xbc5faa62	-0.013651462
242	0x9dd23144	-5.5637477e-21
243	0xbb6217cd	-0.003449905
244	0x3e0f5a93	0.13999395
245	0xbd5a198b	-0.053247016
246	0xbe2f8633	-0.17141037
247	0x9f91407c	-6.151657e-20
248	0x9e0aa680	-7.3400906e-21
249	0xbdb8f2cb	-0.09030684
250	0x3d238c30	0.039928615
251	0x9e2d578e	-9.17665e-21
252	0xbd5f40d5	-0.054505188
253	0x3e4639d6	0.19358
254	0x9e4d5eeb	-1.0872238e-20
255	0x9e2779f7	-8.866128e-21

conv2.local_nn.2.bias f4 [64]
0	0x3d89130e	0.066930875
1	0x9f272736	-3.539606e-20
2	0x9e1f247b	-8.424934e-21
3	0x3c460ae5	0.012087558
4	0x9fa873fc	-7.134265e-20
5	0x3d4f005b	0.05053745
6	0x9e447c87	-1.0401905e-20
7	0xbc6e0524	-0.014527593
8	0x3d61a54a	0.055089273
9	0xadab40b7	-1.9469188e-11
10	0x3cc2b4a7	0.023767782
11	0xbc737064	-0.014858339
12	0x9e5f571b	-1.1823535e-20
13	0x3c13415a	0.008987749
14	0xa624e358	-5.720704e-16
15	0x3d98ac05	0.07454685
16	0x9ed07f26	-2.2075444e-20
17	0xbd1cd188	-0.038285762
18	0x9e2c13ee	-9.1097255e-21
19	0x3cccd4b5	0.02500377
20	0x3d6577a9	0.05602232
21	0x3d5964d9	0.05307469
22	0xbc3c6be4	-0.0115003325
23	0x9e1736c0	-8.0051955e-21
24	0x9ec2072d	-2.0543517e-20
25	0xa14d3005	-6.9520255e-19
26	0x3c85e7b6	0.01634584
27	0xbc72e1dc	-0.014824357
28	0x9e0e4d2e	-7.533378e-21
29	0x9e202797	-8.4785165e-21
30	0x9e1a3e7c	-8.1656136e-21
31	0x9e2c9153	-9.1356565e-21
32	0x9e2e920f	-9.2416875e-21
33	0x9e327215	-9.446833e-21
34	0xa01a8bcd	-1.3090564e-19
35	0x9df0ba4a	-6.372009e-21
36	0x9fed6f1a	-1.00557206e-19
37	0xa20e2533	-1.9264282e-18
38	0xa0034e49	-1.1122034e-19
39	0xa2d36acf	-5.7304753e-18
40	0x3be7f236	0.0070784343
41	0xa0250e45	-1.3980765e-19
42	0x3c6094de	0.013707368
43	0xa2519d0a	-2.8407918e-18
44	0x3cbfdab9	0.023419725
45	0x3d2ecdec	0.04267685
46	0x9d929204	-3.8796855e-21
47	0xbb00432d	-0.001957129
48	0x3d4b92bd	0.049700487
49	0x9e4f60d6	-1.0978514e-20
50	0xbb546391	-0.003240798
51	0x9f1bada3	-3.2966156e-20
52	0x9de0245b	-5.9329897e-21
53	0xa149dc4f	-6.8393025e-19
54	0x3ca23f00	0.019805431
55	0x3cb57761	0.02215165
56	0x9e6e4dd8	-1.2615713e-20
57	0xa1a4ef25	-1.1176373e-18
58	0x9e0ec676	-7.558458e-21
59	0xb4c847e0	-3.73052e-07
60	0xa63a0a5b	-6.454575e-16
61	0xbc5e8fda	-0.013584102
62	0x3d1d3617	0.038381662
63	0xa4b5f0d2	-7.89042e-17

conv3.local_nn.0.weight f4 [128, 67]
0	0x1e130b79	7.784488e-21
1	0x1e3df16b	1.0055501e-20
2	0x1d5894ab	2.8664222e-21
3	0x1e59d86e	1.1532641e-20
4	0x9e4368f2	-1.0344916e-20
5	0x1e4aaea1	1.0729903e-20
6	0x1e657c08	1.2148808e-20
7	0x1df61724	6.5139585e-21
8	0x1d40aa4b	2.5499028e-21
9	0x9dcb356c	-5.378889e-21
10	0x1d108078	1.9124658e-21
11	0x9dd04367	-5.5126834e-21
12	0x9d93db83	-3.9137546e-21
13	0x9d147a88	-1.9650984e-21
14	0x9e03073e	-6.93658e-21
15	0x9d67a8b3	-3.065981e-21
16	0x9d0524a9	-1.7621356e-21
17	0x9c42ec8f	-6.449496e-22
18	0x1cbcfdbe	1.2506387e-21
19	0x9d01087f	-1.70774e-21
20	0x9d1a7ad9	-2.0445241e-21
21	0x9e3bf091	-9.9494455e-21
22	0x9d0d216b	-1.8678471e-21
23	0x1e1cb09c	8.295093e-21
24	0x9cc6869b	-1.3137336e-21
25	0x1dfb4646	6.6511808e-21
26	0x1ce29a16	1.4995256e-21
27	0x9e4ba5ff	-1.0781058e-20
28	0x9e2fd6b3	-9.308822e-21
29	0x1e29b79d	8.984756e-21
30	0x1cd70319	1.4228307e-21
31	0x9e2728c6	-8.849338e-21
32	0x1dd7515f	5.699416e-21
33	0x1db442c7	4.771465e-21
34	0x9e5a8f5c	-1.157047e-20
35	0x1d4999cb	2.6681638e-21
36	0x1a3fffbc	3.9704455e-23
37	0x9dd20461	-5.5591065e-21
38	0x1d937907	3.9035715e-21
39	0x1d7cc5a8	3.3454108e-21
40	0x1e2aae0d	9.035718e-21
41	0x9dae7bd5	-4.6185456e-21
42	0x1d72fc70	3.215894e-21
43	0x1d2c3410	2.2790926e-21
44	0x1d9e2f1e	4.187097e-21
45	0x1db28d3b	4.7262237e-21
46	0x1ce00ce6	1.4826411e-21
47	0x9db3f820	-4.763746e-21
48	0x1c3fbe1c	6.344231e-22
49	0x9da46ca6	-4.352278e-21
50	0x1e23c001	8.668854e-21
51	0x1d49cb2d	2.6707168e-21
52	0x1e3784cd	9.715402e-21
53	0x9e34b11d	-9.565747e-21
54	0x9e5cee37	-1.1695965e-20
55	0x1e27e884	8.8889895e-21
56	0x1cc65a35	1.3125859e-21
57	0x1da6d0d6	4.4155765e-21
58	0x9e42d3ab	-1.0314046e-20
59	0x1ca567e6	1.0945641e-21
60	0x1d8cbaf0	3.725098e-21
61	0x1c02a56d	4.32272e-22
62	0x9d7bf0de	-3.3344099e-21
63	0x1df8df64	6.5876034e-21
64	0x1d5c349c	2.9143956e-21
65	0x9e282e93	-8.903477e-21
66	0x9e3107e5	-9.3719345e-21
67	0xbe33ac46	-0.17546186
68	0x1d5858a8	2.8633196e-21
69	0x9beac82f	-3.8841418e-22
70	0x3ccc1416	0.024911921
71	0x1e73318c	1.2874559e-20
72	0xbe760dfe	-0.24028775
73	0x9c7d1c10	-8.374695e-22
74	0xbdc5be52	-0.09655441
75	0xbdfdd371	-0.12393845
76	0xae0da313	-3.2204527e-11
77	0xbd949245	-0.07254461
78	0xbe8f3b2f	-0.2797484
79	0x1e226d3b	8.598797e-21
80	0xbe3ad3d2	-0.18244866
81	0x248711fc	5.8577384e-17
82	0xbdd084f7	-0.10181611
83	0x1d42fa63	2.5805133e-21
84	0xbda54591	-0.08069909
85	0x9de386bb	-6.0225708e-21
86	0xbe0d2d24	-0.13786751
87	0x3b7c13dc	0.0038463986
88	0xbce5277f	-0.027972935
89	0xbd95776d	-0.07298169
90	0x9c0642c9	-4.44232e-22
91	0x9e42d93e	-1.0315199e-20
92	0x2018a54c	1.2929593e-19
93	0xbe409bcc	-0.18809432
94	0xbe65568d	-0.22396298
95	0x1d0becf8	1.8519007e-21
96	0x1de5de48	6.084563e-21
97	0x1e330022	9.4762086e-21
98	0x9db882d7	-4.883968e-21
99	0x1dc6edf8	5.2656218e-21
100	0x1e65a2d6	1.2156833e-20
101	0xa0180159	-1.2875347e-19
102	0x9e2a7a20	-9.02498e-21
103	0x1f53a988	4.482122e-20
104	0xa0a9fa8b	-2.879551e-19
105	0x9ec77aca	-2.1120729e-20
106	0x9f7f0540	-5.4002693e-20
107	0xbe817263	-0.25282583
108	0x1df8293d	6.5687693e-21
109	0xbe5a5f1b	-0.21325342
110	0xa17d57c2	-8.583588e-19
111	0xbda4c564	-0.08045462
112	0xbec198a8	-0.3781178
113	0x9e017418	-6.853211e-21
114	0xbe4af0c5	-0.19818409
115	0xbe598d65	-0.21245344
116	0x1e31a1e5	9.403781e-21
117	0xbd82ec28	-0.063926995
118	0x1e06bebd	7.133345e-21
119	0x9d966b8a	-3.9815862e-21
120	0x211c107c	5.2876673e-19
121	0x3ddcf1fa	0.10788341
122	0xbe9028de	-0.2815618
123	0x9e4e1e24	-1.0911782e-20
124	0x1eb20867	1.8849958e-20
125	0x1d0fd200	1.903446e-21
126	0x2ee54220	1.04254605e-10
127	0x228db340	3.8407915e-18
128	0xbdaaca3b	-0.08339354
129	0xbdeb233e	-0.11481331
130	0x228dec59	3.846837e-18
131	0x3e0c264f	0.13686489
132	0xbdb451d8	-0.08804673
133	0xbe1142fe	-0.14185712
134	0x239db80a	1.7099918e-17
135	0x1d8ad13c	3.674464e-21
136	0x1de91d10	6.1704636e-21
137	0x238aedf6	1.506277e-17
138	0x1e3972b7	9.817541e-21
139	0x21993e79	1.038422e-18
140	0x9e62a761	-1.19989535e-20
141	0x22590bf9	2.9415322e-18
142	0x224f0725	2.8057513e-18
143	0x202e3a70	1.4757709e-19
144	0xa1de8a3d	-1.5079897e-18
145	0x238e3508	1.541813e-17
146	0x9d427644	-2.5736828e-21
147	0xa390554e	-1.564864e-17
148	0x1e8eb61b	1.5110152e-20
149	0x23505235	1.1293111e-17
150	0x1e1872fe	8.070593e-21
151	0x236cc896	1.2836061e-17
152	0x1e1dffac	8.3643825e-21
153	0xa2a93590	-4.5864253e-18
154	0x22b24546	4.8320343e-18
155	0x236dbef6	1.2888233e-17
156	0x22a1c729	4.3850006e-18
157	0x1e2962ed	8.967243e-21
158	0x1e4959b3	1.0659401e-20
159	0x1e2b6906	9.074383e-21
160	0xa32cf99b	-9.376995e-18
161	0x229d5d4c	4.2653717e-18
162	0x9d803c31	-3.3943554e-21
163	0x1cdf7338	1.4786685e-21
164	0x1e231ec9	8.635514e-21
165	0x9dcf284c	-5.483411e-21
166	0x1cf83bb2	1.6426694e-21
167	0x1bb71d4d	3.0293746e-22
168	0x1fdeb9fb	9.4328336e-20
169	0x1d0699a4	1.7814183e-21
170	0x9fa843e8	-7.126311e-20
171	0x1eb51e5c	1.9176677e-20
172	0x1c0199fb	4.2881535e-22
173	0x2130af64	5.9863247e-19
174	0x23fa01d0	2.7105822e-17
175	0x1ce00ce6	1.4826411e-21
176	0x227d89b8	3.4360801e-18
177	0x206a4eb7	1.9846616e-19
178	0xa35f8c4a	-1.2118562e-17
179	0x22b573d5	4.918279e-18
180	0x9d07aa48	-1.7955135e-21
181	0x23839f36	1.4270477e-17
182	0x230a49a6	7.496591e-18
183	0x9d9b4178	-4.109585e-21
184	0x228a48da	3.748211e-18
185	0x9d89b732	-3.6453018e-21
186	0x9a0b0e72	-2.8756195e-23
187	0x9dd0617c	-5.515794e-21
188	0xa27ee3c0	-3.4543989e-18
189	0xa33f3378	-1.036503e-17
190	0x9de2f3da	-6.007384e-21
191	0xa0249921	-1.3942006e-19
192	0x9e0c1785	-7.416402e-21
193	0x22fb6116	6.813648e-18
194	0x23157313	8.101674e-18
195	0xa2e00dde	-6.0730004e-18
196	0x2308a748	7.407998e-18
197	0x1f6882b8	4.923604e-20
198	0x225e81ef	3.0155397e-18
199	0xa19ed9db	-1.0764162e-18
200	0x22069363	1.8238412e-18
201	0xbdf745a2	-0.12073828
202	0x1d8a76f7	3.6651303e-21
203	0x9e5c4bd7	-1.1662386e-20
204	0x3e31608b	0.17321984
205	0x1d218d5b	2.1381252e-21
206	0xbf008f5e	-0.5021876
207	0x9e1706e6	-7.9953e-21
208	0x3d490aaf	0.049082454
209	0xbd137afa	-0.03600595
210	0x2d759e9d	1.3961857e-11
211	0xbc73b4bd	-0.014874634
212	0x3e650eb0	0.22368884
213	0x9d542a96	-2.8079983e-21
214	0x3d951e03	0.07281115
215	0xa408c637	-2.9658194e-17
216	0xbc38b8e6	-0.011274552
217	0x1d297f41	2.2432752e-21
218	0x3d59fabf	0.053217646
219	0x9de71b69	-6.1173532e-21
220	0x3e064639	0.13112725
221	0xbe8d4f1f	-0.27599427
222	0x3a388920	0.0007039476
223	0xbd96f972	-0.07371797
224	0x9c50f2e1	-6.913534e-22
225	0x9d869308	-3.562153e-21
226	0x9e871908	-1.4304034e-20
227	0x3d159525	0.03651919
228	0xbd8cbe27	-0.06872206
229	0x1e6c2a6c	1.2502509e-20
230	0x1de5e806	6.08557e-21
231	0x9e5ecbbb	-1.1794713e-20
232	0x9e1e5b4c	-8.38333e-21
233	0x9d4e90a2	-2.7338646e-21
234	0x9de801d8	-6.1411795e-21
235	0x1fa05810	6.790832e-20
236	0x1d150e7b	1.9727472e-21
237	0x1ec3372f	2.0669251e-20
238	0x9e6db659	-1.2584384e-20
239	0x1f318471	3.759076e-20
240	0x2132da41	6.05976e-19
241	0x3b5373f8	0.0032265168
242	0x1d5e4680	2.9417903e-21
243	0xbd959075	-0.073029436
244	0x20b03eb2	2.9857048e-19
245	0xbe3109f5	-0.17288955
246	0xbc4e0c3d	-0.01257616
247	0x1bdacca7	3.6197328e-22
248	0x3e5d2328	0.21595442
249	0x3eb1c0cd	0.34717408
250	0x1d9db364	4.174304e-21
251	0xbe855a36	-0.26045388
252	0x1bbc9e58	3.1204318e-22
253	0x9e127316	-7.752975e-21
254	0x1fb00f0e	7.4563805e-20
255	0xbdcb1ddb	-0.09917804

conv3.local_nn.0.bias f4 [128]
0	0x9dec0d83	-6.248265e-21
1	0x3cf0603d	0.029342765
2	0xa3ee90c9	-2.586533e-17
3	0x3d116968	0.035500914
4	0xa057ae02	-1.8268783e-19
5	0x3d8ff3f6	0.07028954
6	0x9e52e42a	-1.1164491e-20
7	0x9ef7dd41	-2.624365e-20
8	0xa0ef97aa	-4.0588538e-19
9	0x3cd3fe04	0.02587796
10	0x9e581608	-1.1439501e-20
11	0xa0500fdd	-1.7623534e-19
12	0x9d2d99c5	-2.2975856e-21
13	0x3d2bba76	0.04192587
14	0x9de57747	-6.0739125e-21
15	0xaa010d6f	-1.1462162e-13
16	0x9f1ec7ae	-3.3622973e-20
17	0x9ff391f8	-1.0315599e-19
18	0x3d65abe3	0.056072127
19	0x9f8296fa	-5.530691e-20
20	0x3c450ffc	0.012027737
21	0x3d9b8755	0.07594172
22	0x9f6a902a	-4.9670677e-20
23	0x9e3f4c84	-1.0127279e-20
24	0x9e23d45a	-8.6730614e-21
25	0x9e0488db	-7.016323e-21
26	0x9e375ba1	-9.706888e-21
27	0xa5b2c7b1	-3.1013394e-16
28	0xa96b7435	-5.2281276e-14
29	0x9e524c0a	-1.1133032e-20
30	0x3ce2105a	0.027595688
31	0x9e3ecd4b	-1.010097e-20
32	0xa00e9e8b	-1.2080325e-19
33	0x9f1fc96d	-3.3836175e-20
34	0x3d4aadc3	0.04948212
35	0xb176845c	-3.587295e-09
36	0x9dbf1706	-5.0581085e-21
37	0x3d01513c	0.03157161
38	0x3d12423a	0.03570769
39	0x9e6c675b	-1.2515109e-20
40	0x9e4962b4	-1.0661263e-20
41	0x9e06b557	-7.131401e-21
42	0x9e4b20b8	-1.0753497e-20
43	0x9ded48dc	-6.2808712e-21
44	0x9f545ce2	-4.4969577e-20
45	0x9e549140	-1.12532235e-20
46	0xbd66b63d	-0.05632614
47	0x9db186ac	-4.6990757e-21
48	0x9db19651	-4.7006933e-21
49	0x3d05dd0f	0.03268152
50	0xa8c1c470	-2.1512496e-14
51	0xac8bf3db	-3.977691e-12
52	0x3c0cedcd	0.008601618
53	0xbcc99435	-0.024606803
54	0x3d38db17	0.045130815
55	0x3daacee2	0.08340241
56	0xa2ce19ae	-5.58636e-18
57	0xa81a5223	-8.566528e-15
58	0x9f9375e1	-6.2451936e-20
59	0x3c9b292b	0.018940529
60	0x9f5f7be2	-4.732456e-20
61	0x9e6382d5	-1.2044335e-20
62	0x3d67bd08	0.05657676
63	0x3d82e0f6	0.06390564
64	0x9e2f7ec5	-9.290638e-21
65	0x3d04f0a1	0.032456044
66	0x9e7d5514	-1.3411302e-20
67	0x3dbc7969	0.09202845
68	0x3db0eed6	0.08639304
69	0x3d748352	0.05969555
70	0x9d06c7e0	-1.7838085e-21
71	0xa59514f5	-2.586158e-16
72	0x9d4071cd	-2.5469822e-21
73	0xa044bf79	-1.6665199e-19
74	0x3d98df7a	0.074645
75	0x3caeb289	0.021325367
76	0x9dad3ffb	-4.5858873e-21
77	0x9e211b9a	-8.528977e-21
78	0x3d50d2ea	0.050982393
79	0x9dd184f1	-5.5459298e-21
80	0x3cc89517	0.024485154
81	0x9e4b989c	-1.0778289e-20
82	0x9dea2539	-6.197777e-21
83	0x3c6a9238	0.014317088
84	0xa002d145	-1.108067e-19
85	0xa6b3895b	-1.245785e-15
86	0x9e2ec8f3	-9.253039e-21
87	0x3dd3159c	0.10306856
88	0x9e026bd1	-6.904439e-21
89	0x9fb0d3a5	-7.4889036e-20
90	0x3d843ef2	0.06457318
91	0x9f6c427d	-5.0029942e-20
92	0x3da085ab	0.07837995
93	0x9d2e6f79	-2.3086338e-21
94	0x3cbcb80c	0.02303698
95	0x9e14798f	-7.8601925e-21
96	0x9df4097c	-6.459607e-21
97	0x9e3d6ed6	-1.0028497e-20
98	0x3c80451b	0.015657952
99	0x3d987e8d	0.07446013
100	0x9e5e0219	-1.1753016e-20
101	0x3d8bafe4	0.06820658
102	0xa6d408ca	-1.4712837e-15
103	0x3c0dca7c	0.008654233
104	0x9dc6f068	-5.2658738e-21
105	0x3db131eb	0.08652099
106	0x9f1f3499	-3.3713067e-20
107	0x9e2f7993	-9.289564e-21
108	0x9dba0692	-4.9240584e-21
109	0x9d5806b7	-2.8590833e-21
110	0x3c9bb1a6	0.019005608
111	0x3d398cfb	0.045300465
112	0x9e3b86c6	-9.927568e-21
113	0x9d7c52aa	-3.3394659e-21
114	0x9da4b04a	-4.3592717e-21
115	0x3ca033e9	0.019556003
116	0x9df285b6	-6.419512e-21
117	0x9da62d41	-4.3986626e-21
118	0x3d010f5c	0.03150879
119	0x9edf15bd	-2.3620034e-20
120	0x3cf872ba	0.030328143
121	0xa81e70f9	-8.795259e-15
122	0xb09b8d3e	-1.1317878e-09
123	0x3d9c5655	0.07633654
124	0x3b01d475	0.0019810472
125	0x3cda9921	0.026684346
126	0xa9fe5782	-1.1295046e-13
127	0xa1b01492	-1.1931669e-18
